Projects/best_model0.pth (torch, 30512 bytes, 10 tensors)

conv_block_1.0.weight f4 [5, 1, 3, 3]
0	0x3e1a13f6	0.15046677
1	0x3da08af2	0.07839002
2	0x3d77d66b	0.06050722
3	0xbcdf3462	-0.027246658
4	0xbe661488	-0.2246877
5	0xbe9fe8f1	-0.31232408
6	0x3e19d227	0.15021573
7	0x3e800e5f	0.25010964
8	0xbee024ed	-0.43778172
9	0x3e5e3948	0.21701539
10	0x3da03da5	0.07824258
11	0x3e8ca7f7	0.27471897
12	0x3d27befe	0.04095363
13	0xbde0ee00	-0.10982895
14	0xbe5e87e2	-0.21731523
15	0xbeb8b826	-0.36077994
16	0x3ed757a0	0.4205904
17	0xbb5cb3e6	-0.0033676564
18	0xbdeb1ee2	-0.114805
19	0x3d6e306f	0.05815166
20	0xbd9d2d3f	-0.07674646
21	0xbdbc56c2	-0.09196235
22	0xbec172c7	-0.3778288
23	0xbead19df	-0.338088
24	0x3e08a73e	0.13345048
25	0x3e1724a9	0.14760078
26	0x3da0b885	0.07847694
27	0x3d18f17c	0.037339672
28	0xbd07b1c2	-0.033128507
29	0x3d248868	0.04016915
30	0x3e22d58c	0.15901774
31	0xbefe0460	-0.49612713
32	0xbc4f6741	-0.012658895
33	0xbcb27428	-0.021783903
34	0xbec3a908	-0.38214898
35	0xbe7682ff	-0.24073409
36	0xbea136ab	-0.3148702
37	0x3e5a1519	0.2129711
38	0x3dff3d45	0.12462858
39	0xbe0d45d0	-0.13796163
40	0xbe835cf5	-0.25656858
41	0xbdb831fb	-0.08993908
42	0xbea42ba3	-0.32064542
43	0x3e9ee059	0.3103054
44	0x3e256db6	0.16155133

conv_block_1.0.bias f4 [5]
0	0x3df9094b	0.121599756
1	0xbe3c1794	-0.1836837
2	0x3ea91033	0.33020172
3	0x3ed0c5ea	0.40775996
4	0x3e3c68b4	0.18399316

conv_block_1.1.weight f4 [5, 5, 3, 3]
0	0x3c1deed5	0.0096394615
1	0x3d3bf5a2	0.04588855
2	0x3e483115	0.19549973
3	0xbd42d062	-0.04756201
4	0xbd1a1994	-0.03762205
5	0x3ed5d70b	0.41765627
6	0xbf113be8	-0.56732035
7	0xbe8288ee	-0.25495094
8	0x3dac4743	0.084120296
9	0xbe995afa	-0.29952222
10	0x3e25a20c	0.16175097
11	0xbe307774	-0.17233068
12	0x3d8b1795	0.06791607
13	0x3e773848	0.24142563
14	0x3c9ac001	0.018890383
15	0xbeb8276d	-0.3596758
16	0x3d46a411	0.04849631
17	0xbde5ac59	-0.11214513
18	0x3e708e3b	0.23491757
19	0x3e51bbd1	0.20481803
20	0x3e508a1a	0.20365182
21	0x3e0209ea	0.12699094
22	0x3e7b185d	0.24521013
23	0x3e904db5	0.28184286
24	0xbe01c089	-0.12671103
25	0xbcada2d9	-0.021195816
26	0x3e5651fc	0.20929712
27	0x3f272bcd	0.6530121
28	0x3ddf38f7	0.10899537
29	0x3eaa869d	0.33305827
30	0x3ed2ba0a	0.41157562
31	0xbd7d74ca	-0.061878957
32	0x3e7e6f08	0.24847043
33	0xbcdeae97	-0.02718286
34	0xbeeb2877	-0.4592931
35	0x3d4c258b	0.04984049
36	0xbe2693fc	-0.16267389
37	0x3e933de7	0.28758165
38	0x3d1a5c48	0.037685663
39	0xbdbaf333	-0.09128418
40	0x3ef94c48	0.4869101
41	0xbd5ad881	-0.05342913
42	0xbc54e89c	-0.0129949115
43	0x3ebc56af	0.36784884
44	0xbe941bb3	-0.28927383
45	0x3ee37b8f	0.44430205
46	0x3c83f146	0.01610626
47	0xbc635401	-0.013875009
48	0x3e5fa6a7	0.21840917
49	0xbdab20ab	-0.0835584
50	0xbe76249e	-0.24037406
51	0x3daa9052	0.08328308
52	0xbddb95bf	-0.10721921
53	0xbe9f51c3	-0.31117067
54	0x3e5e1e84	0.21691328
55	0xbc9a7f4e	-0.018859532
56	0x3ec84b9a	0.3912018
57	0xbe134c6c	-0.14384621
58	0xbe24c71b	-0.16091578
59	0xbd65b489	-0.056080375
60	0xbd5700c1	-0.052490953
61	0xbe46d48a	-0.19417015
62	0xbdb398e9	-0.087694
63	0xbd07dbe2	-0.03316868
64	0x3d872a44	0.065998584
65	0x3dce2b0a	0.10066803
66	0x3e26df79	0.16296186
67	0x3ea3378d	0.3187832
68	0xbdc93159	-0.098238654
69	0x3e1c0421	0.1523595
70	0xbd359fa0	-0.044341683
71	0xbdeecaa9	-0.11659748
72	0x3e47b27f	0.19501685
73	0x3ef429e8	0.47688222
74	0x3c471cc6	0.012152856
75	0x3eb4c2d2	0.35304886
76	0x3e9a797f	0.3017082
77	0xbe90560b	-0.28190646
78	0x3d6ea570	0.058263242
79	0x3d9ceb5a	0.07662077
80	0xbead1b0f	-0.33809707
81	0xbeaad4d0	-0.33365488
82	0xbd51f3ee	-0.05125802
83	0x3ecb60b6	0.39722222
84	0xbe96f77f	-0.294857
85	0x3d6c33a9	0.057666454
86	0x3ed55045	0.41662803
87	0xbe880368	-0.265651
88	0x3d2ee003	0.042694103
89	0x3ecbce0a	0.39805633
90	0xbdc4af45	-0.096037425
91	0x3e05fe1c	0.13085216
92	0x3e12ff21	0.14355136
93	0xbe9c91fe	-0.30580133
94	0xbe52c8df	-0.20584439
95	0x3e860dcf	0.2618241
96	0xbddd6612	-0.10810484
97	0xbedf776f	-0.43645808
98	0x3dd0fb66	0.102042004
99	0xbe075d04	-0.13219076
100	0xbddf0f74	-0.10891619
101	0xbe31a140	-0.17346668
102	0x3daa7abb	0.0832419
103	0x3e729935	0.23691256
104	0xbd10d44f	-0.035358723
105	0xbeb1cadf	-0.3472509
106	0x3e2a5c52	0.1663678
107	0x3ec0f411	0.37686208
108	0x3e0c4510	0.1369822
109	0xbd9c9d62	-0.07647206
110	0x3e0ad929	0.13559403
111	0xbecbab7a	-0.39779264
112	0xbeed4957	-0.46345016
113	0x3c8daf4a	0.017295498
114	0x3d9f9986	0.07792954
115	0xbe8a80ab	-0.2705129
116	0x3dfaf561	0.122538336
117	0xbebd2c76	-0.36947984
118	0xbe4d95aa	-0.20076624
119	0x3d22726a	0.039659895
120	0xbb95da13	-0.0045731156
121	0xbe74e6cb	-0.23916166
122	0xbe1b4f26	-0.15166911
123	0x3e2419e0	0.16025496
124	0x3dcabcd7	0.098992996
125	0xbe60885b	-0.21927015
126	0x3e2b0c4c	0.1670391
127	0xbe9a2887	-0.30109045
128	0xbdd1f396	-0.102515385
129	0x3e2af491	0.16694857
130	0xbe21025e	-0.1572356
131	0xbe571a73	-0.21006183
132	0x3e4af475	0.19819815
133	0xbd59ef69	-0.053206835
134	0x3d8b6ceb	0.06807884
135	0xbe154191	-0.14575793
136	0x3e06668b	0.13125055
137	0x3e3df028	0.18548644
138	0xbe8238bc	-0.2543391
139	0x3d2986e0	0.041388392
140	0xbd3b620b	-0.045747798
141	0xbe35b0c9	-0.1774322
142	0x3e15a734	0.14614564
143	0x3db1a486	0.086739585
144	0x3d414fde	0.047195308
145	0xbe21275f	-0.15737675
146	0xbe3ef489	-0.1864797
147	0x3dcf5c4a	0.101250246
148	0x3e25d50e	0.16194555
149	0xbdf2f20e	-0.118625745
150	0x3e493e46	0.19652662
151	0x3d76e624	0.060278073
152	0xbe03facc	-0.1288864
153	0x3d4b02a1	0.049563054
154	0x3dc100eb	0.09424003
155	0x3e8546d8	0.26030612
156	0xbe11578d	-0.14193554
157	0xbe42e59e	-0.19032905
158	0xbccd06f9	-0.025027739
159	0xbe79c0b2	-0.24389914
160	0xbe0cf2cc	-0.13764495
161	0xbc213db5	-0.009841372
162	0xbe8bc070	-0.27295256
163	0xbe749999	-0.23886718
164	0x3ed48e1a	0.41514665
165	0xbef7c047	-0.48388883
166	0xbe5eb918	-0.21750295
167	0x3d7b3473	0.061329316
168	0xbe43aff5	-0.19110091
169	0xbe9a3609	-0.3011935
170	0x3e86e75c	0.26348388
171	0x3e62c835	0.22146685
172	0xbd6f7515	-0.058461268
173	0xbcdc9f09	-0.026931303
174	0xbdd9e823	-0.1063998
175	0xbe1358d6	-0.14389357
176	0xbe1b69c4	-0.15177065
177	0x3db8c49b	0.090218745
178	0xbe1295ff	-0.14315031
179	0xbe1c1c44	-0.15245157
180	0xbe46207b	-0.19348328
181	0xbddcd06a	-0.10781939
182	0xbe05fa2f	-0.13083719
183	0x3d82fc25	0.06395749
184	0x3d99c1f5	0.075076975
185	0xbd83154c	-0.064005464
186	0x3e8567e1	0.26055816
187	0xbd042217	-0.032259073
188	0xbaad176b	-0.0013205832
189	0xbe2127ba	-0.1573781
190	0x3d8f9121	0.07010103
191	0xbe9d577f	-0.30730817
192	0x3e6a771f	0.22897004
193	0x3e961db5	0.2931954
194	0x3e92bc6d	0.28659382
195	0xbf09fa64	-0.5389769
196	0xbe15a652	-0.14614227
197	0x3e3039ae	0.17209503
198	0xbdf7e906	-0.121049926
199	0xbe818f4c	-0.2530464
200	0xbdd52812	-0.104080334
201	0xbd9143e4	-0.07093027
202	0x3d29094e	0.04126864
203	0xbe8cc2af	-0.27492282
204	0x3e906e1a	0.28209
205	0xbd88e607	-0.06684499
206	0x3c5efcd8	0.013610087
207	0xbdb70da0	-0.08938146
208	0xbeece7d8	-0.46270633
209	0xbed51100	-0.41614532
210	0x3d6100d6	0.054932438
211	0xbe7adaab	-0.24497478
212	0xbe15ce40	-0.1462946
213	0x3f11ef5a	0.57005847
214	0x3eb9ece0	0.36313534
215	0x3e6b7615	0.22994263
216	0x3d60e647	0.05490711
217	0xbe16002e	-0.14648506
218	0xbedd7781	-0.43255237
219	0x3e09b76e	0.13448879
220	0x3e52a99c	0.20572513
221	0xbe4caa21	-0.19986774
222	0xbdaad120	-0.08340669
223	0x3e691b92	0.22764423
224	0x3c9236c8	0.017848387

conv_block_1.1.bias f4 [5]
0	0xbe052489	-0.13002218
1	0xbd6a953f	-0.05727124
2	0xbe85f30f	-0.26162001
3	0xbe84441c	-0.25833213
4	0xbe64e9a2	-0.22354749

conv_block_2.0.weight f4 [5, 5, 3, 3]
0	0xbe54c12b	-0.20776813
1	0xbec93400	-0.39297485
2	0x3db0344a	0.08603723
3	0xbec83cfd	-0.3910903
4	0xbec280ec	-0.37988985
5	0xbdbe4bf4	-0.09291831
6	0x3e48a7f8	0.19595325
7	0x3cd57858	0.026058361
8	0x3ddc3bae	0.107535705
9	0xbe1cdacb	-0.15317838
10	0xbe7e9489	-0.24861349
11	0x3ca7ab6c	0.020467483
12	0xbe1a0d4b	-0.15044133
13	0xbddd624a	-0.10809763
14	0xbe78df86	-0.24304017
15	0x3eb89214	0.3604895
16	0x3dbd49be	0.09242581
17	0x38377ed0	4.3748703e-05
18	0x3d612073	0.054962587
19	0x3c9a06f2	0.01880214
20	0xbe32be8a	-0.17455497
21	0x3ddb90ad	0.10720954
22	0x3e21994f	0.15781139
23	0xbc1cd864	-0.009573076
24	0xbe8663f1	-0.26248124
25	0xbd913fd5	-0.07092253
26	0xbe8345d8	-0.25639224
27	0xbc7c6b39	-0.015406423
28	0x3e6d3977	0.23166452
29	0xbd1be76f	-0.03806251
30	0x3ddd8472	0.108162776
31	0x3e2a964b	0.16658895
32	0xbde5d5da	-0.112224296
33	0xbea95010	-0.33068895
34	0xbe895b9d	-0.26827708
35	0xbeb46448	-0.3523276
36	0xbd390737	-0.045172896
37	0xbe4e01b8	-0.20117843
38	0xbec37798	-0.3817718
39	0x3e82b618	0.25529552
40	0xbd1e1a68	-0.0385994
41	0x3d44ad30	0.048016727
42	0x3c876bb6	0.016530853
43	0x3e54edbb	0.20793812
44	0xbe0c93b2	-0.13728216
45	0x3ee847cc	0.45367277
46	0x3e17a6ef	0.14809774
47	0x3dae611e	0.085146174
48	0xbd7240e1	-0.059143905
49	0xbd8b4581	-0.06800366
50	0xbec83fe0	-0.39111233
51	0xbe0a83ab	-0.1352679
52	0xbdbe5581	-0.09293652
53	0xbe78bfa0	-0.24291849
54	0x3e93139e	0.28725904
55	0xbe0e2e37	-0.13884817
56	0x3e808d1d	0.2510766
57	0x3ce069db	0.027394226
58	0xbf16aca0	-0.58857155
59	0x3d4d7a68	0.050165564
60	0xbe17ae7f	-0.14812659
61	0xbf0b40c3	-0.54395694
62	0x3dd46e3a	0.103725865
63	0xbdaaf91f	-0.08348297
64	0xbef0ba7a	-0.4701727
65	0xbe02157d	-0.1270351
66	0xbe079847	-0.13241683
67	0x3e240830	0.16018748
68	0xbda3e0ca	-0.080018595
69	0x3de96c92	0.11397661
70	0x3df14be1	0.11782051
71	0xbe1c0d26	-0.1523939
72	0xbeb66a2a	-0.35627872
73	0xbe689f9d	-0.22717138
74	0xbcd03955	-0.025417963
75	0xbeac79f3	-0.3368679
76	0x3e6d7ca4	0.23192078
77	0x3e32cfe1	0.17462112
78	0xbed0ffb4	-0.40820086
79	0x3a83e173	0.0010061696
80	0x3d4d12ed	0.050066877
81	0xbd112794	-0.035438135
82	0xbec25820	-0.3795786
83	0xbe858912	-0.2608114
84	0xbd0cf930	-0.03441733
85	0xbd190228	-0.037355572
86	0x3d1a41d2	0.037660427
87	0x3dd86603	0.10566332
88	0x3e3d27c3	0.18472199
89	0x3e2e2e99	0.17009963
90	0x3d5e33f6	0.054248773
91	0x3d92752d	0.07151256
92	0xbe8d85c6	-0.27641124
93	0x3e7f270a	0.24917236
94	0x3eef2ca3	0.46713743
95	0xbe89fc3a	-0.26950246
96	0x3d44f87c	0.048088536
97	0x3e0f419a	0.13989869
98	0xbe4bbaeb	-0.19895522
99	0x3e810389	0.2519801
100	0xbbaee5bf	-0.0053374465
101	0xbe2b98fc	-0.16757578
102	0x3e2bc03d	0.16772552
103	0x3e7064ea	0.23475996
104	0xbeab7661	-0.33488753
105	0xbe8471c7	-0.25868055
106	0xbe31bb08	-0.17356503
107	0xbc9633d6	-0.018335264
108	0xbf0cd459	-0.55011517
109	0x3e87c389	0.2651637
110	0x3ee6ae78	0.45054984
111	0xbf3b24dc	-0.7310312
112	0xbe9cc6b1	-0.3062034
113	0x3e2b5b7f	0.16734122
114	0x3e68d870	0.22738814
115	0x3e1c1e7a	0.15246001
116	0x3e382f94	0.179869
117	0xbe128ebf	-0.14312266
118	0xbeae6434	-0.34060824
119	0x3defc73b	0.11707922
120	0xbe8852a6	-0.26625556
121	0xbf129db9	-0.57271916
122	0xbd59334a	-0.05302743
123	0x3ee33baf	0.44381472
124	0x3e64c6a0	0.22341394
125	0x3e67ec36	0.22648701
126	0xbe495537	-0.19661413
127	0x3e8ba388	0.27273202
128	0x3ece1b33	0.40255126
129	0xbeea9229	-0.45814636
130	0x3d02b5b8	0.03191158
131	0x3eaa5edd	0.332755
132	0xbd65a2e6	-0.056063555
133	0xbdd1e561	-0.10248829
134	0x3ea124b7	0.31473324
135	0xbd6c6c62	-0.05772055
136	0xbe8d6c10	-0.27621508
137	0xbeeec57c	-0.46635044
138	0x3d36026e	0.04443591
139	0x3dd2e1e1	0.10296989
140	0x3d5c530f	0.05379015
141	0x3ec08727	0.37603113
142	0x3e59384f	0.21212886
143	0x3d399fb3	0.045318317
144	0xbe0deb0d	-0.13859196
145	0xbeab8ecf	-0.33507392
146	0xbe693e47	-0.22777663
147	0x3e10f57b	0.14156143
148	0x3d74a79d	0.05973016
149	0x3d7876fc	0.060660347
150	0x3e73161b	0.23738901
151	0xbac8d5d3	-0.0015322514
152	0x3e6ea466	0.233049
153	0xbdf7a4ec	-0.12092003
154	0x3eced5a9	0.40397385
155	0x3e8c512e	0.27405685
156	0xbe2fadb4	-0.17156106
157	0x3c826da2	0.015921418
158	0xba882c58	-0.0010389192
159	0xbdc4501c	-0.09585592
160	0xbda0f82f	-0.07859837
161	0xbcb50dd2	-0.022101317
162	0xbe1707a5	-0.1474901
163	0x3e404d46	0.18779477
164	0x3e9c5549	0.30533817
165	0xbe710a70	-0.23539138
166	0xbe8d5717	-0.27605507
167	0xbca325f6	-0.019915562
168	0x3e676c47	0.22599898
169	0xbdb41d7d	-0.08794687
170	0xbdd18f5a	-0.1023242
171	0x3d38d6c3	0.045126688
172	0x3e5d549b	0.21614306
173	0x3e0b12a6	0.13581333
174	0xbe36f682	-0.17867473
175	0x3cdde8c9	0.02708854
176	0x3e3172f9	0.17329015
177	0xbdf7265f	-0.120678656
178	0xbe1d5038	-0.15362632
179	0x3e43004c	0.19043082
180	0xbdf9b2bc	-0.12192294
181	0xbe23f04b	-0.16009633
182	0xbd650fad	-0.055923153
183	0x3df465d4	0.11933485
184	0xbd8fa81d	-0.07014487
185	0x3a897bf3	0.001048921
186	0x3eb1ad9c	0.34702766
187	0x3cef7f5b	0.029235533
188	0x3dd1930b	0.10233124
189	0xbe82e782	-0.2556725
190	0xbec18ae2	-0.37801272
191	0xbde30f97	-0.11086958
192	0x3e3e77b5	0.18600352
193	0xbe5a56d9	-0.21322192
194	0x3ed56657	0.41679642
195	0x3e856b39	0.26058367
196	0xbdda04f1	-0.10645474
197	0x3ec2ee73	0.38072547
198	0x3e2077c7	0.15670691
199	0xbe3088d0	-0.1723969
200	0x3e8953a2	0.2682162
201	0xbe964a16	-0.29353398
202	0x3abde8dc	0.0014488953
203	0x3c9ca66f	0.01912233
204	0xbeb9353f	-0.36173436
205	0x3c6d3f58	0.014480434
206	0xbe4d4492	-0.20045689
207	0x3cec47fb	0.028842917
208	0xbd6fd63c	-0.05855392
209	0x3ead0a32	0.3379684
210	0xbee7347b	-0.45157227
211	0xbdbc351c	-0.09189817
212	0xbdf40a29	-0.119160004
213	0xbd13a2d3	-0.036043953
214	0xbe5b4634	-0.21413499
215	0x3e16f95a	0.14743558
216	0x3e2111f5	0.15729506
217	0xbc407b09	-0.011748084
218	0x3e5afbbf	0.21385096
219	0x3e38a916	0.18033251
220	0x3da88574	0.08228579
221	0x3ccceda6	0.025015663
222	0xbd973d76	-0.073847696
223	0xbd67ee46	-0.05662372
224	0xbe11c43c	-0.14235014

conv_block_2.0.bias f4 [5]
0	0x3e945bbb	0.28976235
1	0xbe19a0b4	-0.1500271
2	0x3dbe7c01	0.093009956
3	0x3daa8f2e	0.083280906
4	0x3e16d446	0.14729413

conv_block_2.1.weight f4 [5, 5, 3, 3]
0	0xbe556793	-0.20840292
1	0xbd70520e	-0.058672003
2	0x3e24645b	0.16053908
3	0x3d318aef	0.043345388
4	0x3dab145c	0.083534926
5	0x3da988bc	0.08278033
6	0xbd1b27f6	-0.037879907
7	0x3d771977	0.06032702
8	0x3d49351f	0.049122926
9	0x3f02d45d	0.5110529
10	0x3e93297d	0.2874259
11	0xbdc4d1e4	-0.09610346
12	0x3e693b05	0.2277642
13	0xbe877edc	-0.26463974
14	0xbe00e5f7	-0.12587725
15	0xbd0a05d5	-0.033696968
16	0xbebf75a4	-0.3739444
17	0xbecf2330	-0.40456533
18	0x3eaa30f0	0.3324046
19	0x3c74862a	0.014924565
20	0xbd902dc3	-0.07039978
21	0xb989c759	-0.00026279202
22	0xbe83fc61	-0.25778487
23	0xbe93e36b	-0.28884444
24	0xbd06550c	-0.03279595
25	0xbe53c835	-0.20681842
26	0xbe498a39	-0.19681634
27	0xbe852f0c	-0.26012456
28	0xbe8cf7a3	-0.27532682
29	0x3d6d6fd3	0.057967972
30	0x3d4bd8b0	0.049767196
31	0x3dec2202	0.11529924
32	0xbd03dcc4	-0.03219296
33	0x3eb308d9	0.34967688
34	0x3e301e48	0.17199051
35	0x3e0dcfd7	0.13848816
36	0xbec17b31	-0.377893
37	0xbea69315	-0.3253409
38	0xbd9e0102	-0.07715036
39	0xbdd9fa0c	-0.10643396
40	0x3e154bfc	0.14579767
41	0x3b8b5f46	0.004253301
42	0x3e6578ca	0.22409359
43	0x3e5fd8d6	0.2186006
44	0x3bc75cd2	0.006084063
45	0xbe19eee4	-0.15032536
46	0xbe125f7a	-0.14294234
47	0x3b230d57	0.0024879777
48	0xbed0102d	-0.4063734
49	0x3db11b0b	0.08647736
50	0xbb8ba349	-0.0042614085
51	0xbd736a87	-0.059427764
52	0x3de1dc5d	0.11028359
53	0xbdbaf330	-0.091284156
54	0x3d70d524	0.058797017
55	0x3ea4e264	0.32203972
56	0xbe9f71ac	-0.31141412
57	0x3c9ced79	0.019156205
58	0x3e35727a	0.1771945
59	0xbebc0a22	-0.3672648
60	0x3d4160f7	0.047211614
61	0x3e081be8	0.13291895
62	0xbf1b2da9	-0.60616547
63	0x3e36327d	0.17792697
64	0x3d5b28fb	0.05350588
65	0x3d4f0b4a	0.050547875
66	0x3eb6892b	0.35651526
67	0xbef8746b	-0.4852632
68	0x3db9fc79	0.090813585
69	0xbdbf157a	-0.09330268
70	0xbf568ddf	-0.8381023
71	0x3e9cc96a	0.30622417
72	0x3c105a64	0.008810613
73	0x3bd693af	0.006548367
74	0xbe502d0b	-0.20329683
75	0x3e8a3556	0.26993817
76	0xbe3e9557	-0.18611656
77	0xbe54e70c	-0.20791262
78	0xbbc49a74	-0.0059998576
79	0xbe9c8e23	-0.30577192
80	0xbdd6a23f	-0.10480165
81	0x3ca10cff	0.019659517
82	0x3d8986e2	0.0671518
83	0xbe961509	-0.29312924
84	0x3af75d44	0.00188724
85	0x3e83e1af	0.2575812
86	0xbf15c7fa	-0.58508265
87	0xbe5f9ce4	-0.21837193
88	0x3d7b9b95	0.06142767
89	0xbea927ee	-0.33038276
90	0x3d7b5468	0.061359793
91	0xbded4daa	-0.11587079
92	0xbe561014	-0.20904571
93	0xbdf07484	-0.117409736
94	0xbea2fb7c	-0.31832492
95	0xbeccb378	-0.39980674
96	0xbe5b6694	-0.21425849
97	0xbe7449a2	-0.23856214
98	0xbe3c07aa	-0.18362299
99	0xbea30c86	-0.31845492
100	0xbeaa3596	-0.33244008
101	0xbcda7ae9	-0.026669936
102	0xbef2763e	-0.47355837
103	0xbe210041	-0.15722753
104	0xbe410f31	-0.18853451
105	0x3d18f912	0.037346907
106	0x3ec3f728	0.38274503
107	0x3ef2a76c	0.47393358
108	0xbec65c5d	-0.38742343
109	0xbbd3c733	-0.0064629554
110	0x3e518a96	0.20463023
111	0xbec9c40c	-0.39407384
112	0x3c074c37	0.008257917
113	0x3e3d0713	0.1845973
114	0xbe9e9543	-0.30973253
115	0xbe19a2a2	-0.15003446
116	0x3c3bff29	0.011474409
117	0xbe60cba4	-0.21952683
118	0x3e7df8ad	0.24801894
119	0x3e8f3b0c	0.27974737
120	0xbe547d05	-0.20750816
121	0xbd335d7b	-0.04379032
122	0x3e602b23	0.21891455
123	0xbe39f2fb	-0.18159096
124	0xbe87395e	-0.26410955
125	0xbe5571c7	-0.20844184
126	0xbe5fea23	-0.2186666
127	0x3e27aca3	0.1637445
128	0x3ee495b7	0.44645473
129	0x3cb52aea	0.02211519
130	0x3e6ec41f	0.23317002
131	0x3de35b51	0.111014016
132	0xbe51adc0	-0.20476437
133	0xbd9a4985	-0.07533554
134	0xbe562d10	-0.20915627
135	0xbe28c701	-0.16482164
136	0xbebf2ed8	-0.37340426
137	0xbee3d71e	-0.4450006
138	0xbddd012c	-0.10791239
139	0xbe101ecd	-0.1407425
140	0xbe65bc44	-0.22435099
141	0x3e4acaee	0.19803974
142	0x3e85abad	0.2610754
143	0xbdc015b5	-0.0937914
144	0xbcd37311	-0.025811704
145	0xbeb2d99b	-0.34931645
146	0xbe31d02f	-0.17364572
147	0x3e5ca0cf	0.21545719
148	0x3ea406c5	0.32036415
149	0x3e0e698c	0.1390745
150	0x3e467dc0	0.19383907
151	0x3e277ffc	0.16357416
152	0xbe0e822f	-0.13916849
153	0xbd2466b1	-0.040136997
154	0x3e90afdb	0.28259167
155	0x3e4ef849	0.20211901
156	0x3e0b6084	0.13611037
157	0x3d013cfd	0.031552304
158	0xbe1a9831	-0.15097119
159	0xbea05282	-0.31312948
160	0xbe3af625	-0.18257959
161	0x3cf2ca84	0.029637583
162	0x3e3c0b20	0.18363619
163	0x3dd7938c	0.10526189
164	0xbdd595c9	-0.1042896
165	0xbe859ec2	-0.26097685
166	0xbebd4359	-0.36965445
167	0xbe611c10	-0.21983361
168	0x3c0289a2	0.0079673845
169	0x3d0d1e8f	0.03445297
170	0x3de6c4bd	0.112679936
171	0x3dfae10a	0.12249954
172	0x3d9fe014	0.078064114
173	0xbe90fe46	-0.28318995
174	0xbe844fd1	-0.25842145
175	0xbe9a8e1f	-0.30186555
176	0xbf057d13	-0.52143973
177	0x3ca48750	0.020084053
178	0x3dc517e0	0.096236944
179	0x3e240b1f	0.16019867
180	0xbe8327b1	-0.2561622
181	0xbd9f6730	-0.07783353
182	0x3e93288d	0.28741875
183	0xbedbe4f4	-0.42948115
184	0xbeae6ad7	-0.34065887
185	0x3d63f459	0.05565295
186	0x3cccbfb2	0.024993751
187	0xbea20839	-0.31646898
188	0xbe751556	-0.2393392
189	0xbe09ad8f	-0.13445114
190	0x3d1f88ee	0.038948946
191	0x3e60830b	0.21924989
192	0x3de31743	0.11088421
193	0xbe9eb351	-0.30996183
194	0xbd18df0d	-0.037322093
195	0x3ee97d98	0.45603633
196	0xbe740609	-0.23830427
197	0xbdc112ad	-0.0942739
198	0x3f0dd6e1	0.55406004
199	0xbc29f67b	-0.010373707
200	0xbed92261	-0.42409042
201	0x3e9744a9	0.2954457
202	0x3eb14981	0.34626392
203	0x3e38a276	0.18030724
204	0xbeb808aa	-0.3594411
205	0xbdac5135	-0.084139265
206	0x3e844a18	0.2583778
207	0x3eabe4d7	0.33573028
208	0x3e864c06	0.26229876
209	0xbd977fcc	-0.07397422
210	0xbd8c7781	-0.06858731
211	0x3e65b0ed	0.22430773
212	0x3ea2c1ef	0.31788585
213	0xbf22a6ae	-0.63535583
214	0xbf06b017	-0.5261244
215	0x3eaa4e80	0.33263016
216	0xbcc38312	-0.02386621
217	0x3e8f8c28	0.28036618
218	0xbde59d9a	-0.11211701
219	0xbd5f5639	-0.054525588
220	0xbde3229b	-0.11090585
221	0x3eb9a1ae	0.36256164
222	0xbe144d34	-0.14482576
223	0xbed06a1f	-0.40705964
224	0xbe4c8ed3	-0.19976358

conv_block_2.1.bias f4 [5]
0	0xbf1376f0	-0.5760336
1	0xbe8af7f0	-0.27142286
2	0xbe17afcd	-0.14813156
3	0xbe800fea	-0.2501214
4	0xbe90d7dd	-0.2828969

classifier.1.weight f4 [24, 245]
0	0x3e1ca4fc	0.15297312
1	0xbdd315ad	-0.10306869
2	0x3e0af629	0.13570465
3	0x3e04b16c	0.12958306
4	0x3de30f93	0.11086955
5	0x3eb4daab	0.3532308
6	0x3d923580	0.071391106
7	0x3e79c78e	0.2439253
8	0x3eb5f5dc	0.35539138
9	0x3e125f55	0.14294179
10	0x3e59399d	0.21213384
11	0x3f169fa2	0.5883733
12	0x3ec861ff	0.39137265
13	0xbe52c14b	-0.20581548
14	0x3eb95a43	0.36201677
15	0x3e0d21a7	0.13782369
16	0xbed1fadc	-0.41011703
17	0xbe623ef1	-0.22094323
18	0xbe945316	-0.2896964
19	0xbf7748b4	-0.9659531
20	0xbf8e1e82	-1.110306
21	0x3eaa2071	0.33227876
22	0x3e679a61	0.22617485
23	0xbe6d85d2	-0.2319558
24	0xbe8695b8	-0.262861
25	0xbe5fceea	-0.21856275
26	0x3e7c84e6	0.24660072
27	0xbf999314	-1.199801
28	0x3e808c99	0.25107267
29	0xbda67aa7	-0.08128863
30	0xbe62a3b6	-0.22132763
31	0x3e8319f5	0.2560574
32	0x3ea09bc5	0.31368843
33	0xbe7592ee	-0.2398183
34	0x3c370d3f	0.011172592
35	0x3e39434e	0.18092081
36	0x3e130293	0.1435645
37	0xbe0c92f0	-0.13727927
38	0xbe0de514	-0.13856918
39	0xbbe779f8	-0.0070641004
40	0xbddbe17d	-0.10736368
41	0x3de3b9d5	0.11119429
42	0xbe52cfd0	-0.20587087
43	0x3e092519	0.13393058
44	0x3de18ba0	0.110129595
45	0xbe5d2174	-0.21594793
46	0xbed2e5a6	-0.41190833
47	0x3daa7bd8	0.083244026
48	0x3da97f7f	0.08276271
49	0x3ecc3c51	0.39889768
50	0xbebe8841	-0.37213328
51	0xbe8fc65e	-0.2808103
52	0xbeb227ef	-0.34796092
53	0xbde942b0	-0.11389673
54	0x3e94fe49	0.29100254
55	0x3d9f27c4	0.077712566
56	0x3ce5c544	0.028048165
57	0xbea25fff	-0.31713864
58	0x3db8f711	0.09031499
59	0xbe624fef	-0.22100805
60	0x3eb8f150	0.36121607
61	0xbe2937a8	-0.16525137
62	0xbedeff0d	-0.43553963
63	0x3ba6b63f	0.0050876434
64	0x3eef8d17	0.4678733
65	0xbbd23c9f	-0.006415918
66	0x3e342086	0.17590532
67	0xbdfd216b	-0.123598896
68	0x3e1ebbc1	0.1550131
69	0xbf415411	-0.755189
70	0xbd9bfeb6	-0.07616942
71	0x3e430bef	0.19047521
72	0x3e1e681a	0.15469399
73	0xbe6bdefa	-0.23034278
74	0x3d681f42	0.056670435
75	0x3efbbf28	0.49169278
76	0xbe9b6d96	-0.30357045
77	0xbe95b016	-0.29235905
78	0xbbe412e8	-0.0069602616
79	0xbdc97459	-0.09836645
80	0xbea7ec99	-0.32797697
81	0xbc4bd48d	-0.012440813
82	0xbeb4abc2	-0.3528729
83	0x3e976423	0.29568586
84	0xbe7cb99a	-0.24680176
85	0x3e056603	0.13027196
86	0x3e85f244	0.26161397
87	0x3d8c6e44	0.06856969
88	0xbf167b79	-0.58782154
89	0xbe17b550	-0.14815259
90	0x3e204172	0.15649965
91	0x3dc87d89	0.09789569
92	0x3ede0eba	0.4337061
93	0xbe4ff02d	-0.20306464
94	0xbe2640fe	-0.1623573
95	0xbefcbb29	-0.49361542
96	0xbed6bcba	-0.41940862
97	0x3c8e3373	0.017358517
98	0xbe8409d2	-0.25788742
99	0x3da5e440	0.08100176
100	0xbeabc272	-0.33546788
101	0xbe2f5bed	-0.1712491
102	0xbe46d6f2	-0.19417933
103	0xbe6806b8	-0.22658813
104	0xbe0e99de	-0.13925883
105	0xbdda6bd3	-0.10665097
106	0x3d88ebd7	0.06685608
107	0x3dacb679	0.084332414
108	0xbe7e5d7c	-0.24840349
109	0xbec2a312	-0.38015038
110	0xbced4c05	-0.028966913
111	0xbead7f04	-0.33885968
112	0xbca6c595	-0.020357886
113	0x3e874fd9	0.26428106
114	0x3f026561	0.5093594
115	0x3b4f679d	0.0031647452
116	0x3f26840f	0.65045255
117	0x3f2b3bfc	0.66888404
118	0x3d466a2a	0.04844109
119	0x3c7c3729	0.015394011
120	0x3ec3afe4	0.3822013
121	0x3e83de9e	0.2575578
122	0xbe81db02	-0.25362402
123	0x3d6f7a66	0.058466338
124	0x3ef5a213	0.47975215
125	0x3e41b267	0.18915711
126	0xbd918906	-0.07106213
127	0x3ed9ee9f	0.42564866
128	0xbd28f849	-0.04125241
129	0xbf39a86c	-0.72522616
130	0xbf031b11	-0.51213175
131	0x3e6e4116	0.23267016
132	0xbe163805	-0.14669807
133	0x3dc2cd81	0.09511853
134	0xbde38068	-0.11108476
135	0xbd00e3f2	-0.031467386
136	0xbf5872c7	-0.84550136
137	0xbe169c1b	-0.14707987
138	0x3e8e23b9	0.2776163
139	0xbf009840	-0.50232315
140	0x3dcaebe7	0.09908276
141	0xbe54778a	-0.20748726
142	0xbda8c57a	-0.08240791
143	0x3ea7daf5	0.32784238
144	0xbd0fa095	-0.035065252
145	0xbe7933f8	-0.24336231
146	0x39b9b347	0.00035419522
147	0x3ebff7e8	0.37493825
148	0x3db019de	0.08598684
149	0x3db8974f	0.09013235
150	0x3e12c538	0.14333045
151	0x3c8ab4ad	0.016931856
152	0xbe0ce35e	-0.13758609
153	0xbeb88e55	-0.3604609
154	0x3dcb1361	0.099158056
155	0xbe0832e0	-0.13300657
156	0xbe01fc98	-0.12694013
157	0xbe3c4260	-0.18384695
158	0xbda5d4e2	-0.08097245
159	0xbee46413	-0.446076
160	0xbefd9cc2	-0.4953366
161	0xbc2925d4	-0.01032396
162	0x3e08a0ed	0.13342638
163	0xbd859a54	-0.065235764
164	0x3e9432f7	0.28945133
165	0x3d988464	0.074471265
166	0xbc41ba8a	-0.01182426
167	0xbf6b76fd	-0.91978437
168	0xbd8b5d56	-0.06804912
169	0x3ec36e63	0.38170156
170	0x3df239dc	0.11827442
171	0xbe0c4682	-0.13698772
172	0x3eada442	0.3391438
173	0x3ee9e406	0.4568178
174	0x3edc1704	0.4298631
175	0xbe820fd2	-0.25402695
176	0x3e60df44	0.21960169
177	0x3e31eb5f	0.17374943
178	0x3e3dbb1b	0.18528406
179	0x3eb7b621	0.3588114
180	0x3f4e282b	0.8053004
181	0x3f0d301e	0.55151546
182	0xbda707b5	-0.08155767
183	0x3e434e3c	0.19072813
184	0x3d730500	0.05933094
185	0xbeca0cf5	-0.3946301
186	0xbe8bcc17	-0.27304146
187	0x3eaef250	0.34169245
188	0x3e27a241	0.16370489
189	0x3ed9e5eb	0.42558226
190	0x3e5d1c3a	0.21592799
191	0xbdc6de80	-0.09710407
192	0x3e3abb5d	0.18235536
193	0xbe2fbd16	-0.17161974
194	0xbe45a678	-0.19301784
195	0x3d9b741a	0.07590504
196	0xbe177c34	-0.14793473
197	0xbeda9ff9	-0.42700174
198	0xbf1592be	-0.58427036
199	0xbf40c4b7	-0.75300163
200	0xbe4419d8	-0.19150484
201	0xbf0beb32	-0.54655755
202	0xbf1d2bf5	-0.613952
203	0x3d9fe79e	0.07807849
204	0xbf0c31e5	-0.54763633
205	0x3f22a1d1	0.6352816
206	0xbe2a63ae	-0.16639587
207	0x3e984a21	0.29744056
208	0xbf59979d	-0.8499697
209	0xbe6fc5b9	-0.23415269
210	0x3b9f7233	0.0048659085
211	0xbdf9ebb3	-0.12203159
212	0x3e7be1c0	0.24597836
213	0x3b248d08	0.0025108475
214	0xbe6f2671	-0.23354508
215	0xbea1ed09	-0.31626156
216	0x3f9d552c	1.2291617
217	0x3d3630f6	0.044480287
218	0x3e4f690f	0.2025492
219	0x3e8e3103	0.27771768
220	0xbdb1e2cf	-0.086858384
221	0xbf6f6fb8	-0.93529844
222	0x3df4588e	0.11930953
223	0x3f0f9151	0.5608111
224	0xbc8a34d4	-0.016870894
225	0x3e729ce3	0.2369266
226	0xbda0a7f1	-0.07844532
227	0xbecec070	-0.40381193
228	0xbf2324fc	-0.6372831
229	0xbedecdfa	-0.43516523
230	0x3ecfcb94	0.40585005
231	0x3ef5655f	0.47928903
232	0xbece8b34	-0.4034058
233	0xbd42f3be	-0.047595732
234	0x3d28256a	0.041051306
235	0xbe57b753	-0.21066026
236	0xbd8cb94e	-0.068712816
237	0x3d84cea4	0.06484726
238	0x3de76f2f	0.113005035
239	0xbd9caeac	-0.076505035
240	0xbf01fc69	-0.5077577
241	0xbe164371	-0.14674164
242	0x3f02c5c0	0.5108299
243	0xbd9b539b	-0.07584306
244	0xbedf624c	-0.43629682
245	0xbe890d50	-0.2676797
246	0xbe01f058	-0.1268934
247	0x3e4d852c	0.20070332
248	0x3e499824	0.19686943
249	0xbda9c335	-0.08289186
250	0xbe3aa0c3	-0.18225388
251	0xbe736cc6	-0.23771963
252	0xbdb38553	-0.08765664
253	0x3dabe4b0	0.08393228
254	0x3da1edca	0.07906683
255	0xbedf6c2b	-0.43637213

classifier.1.bias f4 [24]
0	0xbdfb00b2	-0.12255992
1	0xbbbd48ab	-0.005776485
2	0xbe7e0329	-0.24805893
3	0xbe6cd6d7	-0.2312883
4	0xbe3b5fb5	-0.18298228
5	0x3e4362ae	0.19080612
6	0x3d50d2d3	0.050982308
7	0x3d888c52	0.06667389
8	0x3e009a38	0.1255883
9	0xbe075fda	-0.13220158
10	0xbc214a18	-0.0098443255
11	0xbdfcd693	-0.12345614
12	0xbdcaa1c2	-0.09894134
13	0xbe4295d6	-0.1900247
14	0x3e3440b8	0.17602813
15	0xbe22afee	-0.15887424
16	0xbda7de34	-0.08196679
17	0x3d50dd18	0.0509921
18	0x3e8ce96a	0.2752183
19	0xbdd1970d	-0.10233889
20	0x3d6ad736	0.057334147
21	0x3e5cb325	0.21552713
22	0x3dd3e230	0.10345876
23	0x3b7574e2	0.00374537
