Projects/best_model3.pth (torch, 76592 bytes, 10 tensors)

conv_block_1.0.weight f4 [12, 1, 3, 3]
000000 a2 56 0a bd 4e df 0f be a4 44 71 bd a1 73 92 bd
       -0.033774026 -0.14050028 -0.05890335 -0.07150961
000010 b9 a8 c7 3e 56 77 1d ba 49 4e 7c 3e 52 d3 f8 bd
       0.38995913 -0.0006006857 0.24639238 -0.12149681
000020 67 95 29 be a2 49 29 3e c4 02 c4 3e e7 ed f8 3d
       -0.16560899 0.16531995 0.3828336 0.12154751
000030 e0 17 7b be 02 0d fb 3e 26 5b 9a bc 94 3d 4f be
       -0.24520826 0.49033362 -0.018842291 -0.20238334
000040 b9 fc 15 bd f6 1d 69 bc 87 1a f9 bd 23 ea 2c be
       -0.03661797 -0.014228335 -0.12163263 -0.16886191
000050 da 22 a3 bd 64 8c 84 be 83 15 d5 bd e6 fc b8 bc
       -0.07965632 -0.2588836 -0.10404494 -0.022581529
000060 57 63 f7 bd 53 eb a0 3e 59 e0 a0 3e 80 88 29 3e
       -0.120794944 0.31429538 0.31421164 0.16555977
000070 50 55 a6 bd b0 dc 38 be 98 a0 26 be e7 aa b6 bd
       -0.08121741 -0.18052936 -0.16272199 -0.08919316
000080 76 b9 9b bc f2 74 92 3d 6a 35 d7 bd 2e c5 30 3e
       -0.019009333 0.07151212 -0.10508235 0.17262718
000090 57 29 c0 be 7d 8d b0 3e fd 8f e5 3e 3a ca 37 be
       -0.3753154 0.34482947 0.44836417 -0.17948237
0000a0 21 4a 1c 3d f4 18 c4 3d a3 c5 90 be 80 ed c8 be
       0.038156632 0.09575072 -0.28275785 -0.39243698
0000b0 cd bc b1 3d cc 2b f4 3e 77 49 32 bd 08 f2 ec 3d
       0.08678589 0.47689664 -0.043527093 0.11569601
0000c0 f9 95 60 bd bb 06 12 be e0 2b be be 3f d1 f2 bd
       -0.054830525 -0.1426038 -0.3714285 -0.11856317
0000d0 1d cd 98 be c1 61 ee 3d 03 f1 64 3e 8c 5e 93 3d
       -0.2984399 0.11639739 0.22357564 0.07195768
0000e0 93 b0 82 3e d6 71 bb 3c cb d2 d2 3d bf 05 18 3e
       0.2552534 0.02288143 0.10294112 0.14845942
0000f0 d2 d3 69 be 45 a6 99 be 7c 85 2e be 00 b5 7a be
       -0.2283471 -0.30009666 -0.17043108 -0.24483109
000100 e6 3f 21 3e bb d9 da ba 43 02 01 be 47 73 15 3e
       0.15747032 -0.0016696969 -0.12598519 0.14594756
000110 15 f7 71 be ac 43 c0 bc fb ef be 3e fb 1e d6 bd
       -0.2362941 -0.023469768 0.37292466 -0.10455128
000120 30 a3 e4 3d f8 71 80 bd 1d 96 9e bc 7c 9e 74 3e
       0.11163938 -0.06271738 -0.019358689 0.23888582
000130 5d d2 dd bd fb 4c c0 bd dc 26 d5 bd 40 9d 36 3c
       -0.10831139 -0.09389683 -0.104078025 0.01114589
000140 c5 41 d9 3d b7 1f b0 be be 96 98 3e 78 7e 32 3e
       0.10608248 -0.34399197 0.29802507 0.17431056
000150 9c 65 48 be 5a af 8f bc 7f 76 d3 bd 77 1b 2b 3e
       -0.19570011 -0.017539669 -0.10325336 0.16709696
000160 13 85 54 3e c8 2b c7 bd e1 46 da bb fc dc 2e be
       0.20753889 -0.097251475 -0.0066612815 -0.17076486
000170 f6 a5 a6 3e d0 e0 aa 3e 2b 40 0a 3c dc 6e 8a 3e
       0.32548493 0.33374643 0.00843815 0.27037704
000180 38 41 fb bd 6f d1 3f be 4f 7d 4c be 65 2c 58 3c
       -0.12268299 -0.18732236 -0.19969676 0.013194178
000190 fd bc c3 bc 32 e3 6b 3e cc 0e f6 bb ae ed 41 be
       -0.023893828 0.23035887 -0.007509088 -0.18938324
0001a0 1e 1c 12 3e 65 7d b3 bd 36 d4 4e 3e 9b c0 0b be
       0.14268538 -0.087641515 0.2019814 -0.13647692

conv_block_1.0.bias f4 [12]
000000 c7 a4 37 bd bd fc 9b be 95 05 05 3e 39 aa 29 3e
       -0.04483488 -0.30466262 0.1299041 0.16568841
000010 29 dd 45 3e 8c 1a 64 3e 5a a8 0f bd 02 a7 80 3d
       0.19322647 0.22275752 -0.035072662 0.06281854
000020 71 25 b1 bd 98 31 b3 bc 67 22 1f be 4c 3d cd bd
       -0.086497195 -0.021874234 -0.15540467 -0.10021457

conv_block_1.1.weight f4 [12, 12, 3, 3]
000000 fd 12 53 3d 5b ca 50 3e 5f fc c1 3d 02 a1 07 3e
       0.05153178 0.20389692 0.09471964 0.13245013
000010 a0 b6 4e bd 4b 47 59 3b fb 68 67 3e aa 0f cf bd
       -0.050467134 0.0033154066 0.2259864 -0.101104096
000020 10 d3 30 be 8f 86 dd 3d de dd 13 3e f6 ed ca bd
       -0.17268014 0.10816681 0.14440104 -0.09908669
000030 64 95 48 3e 63 cb e4 3e 5d 24 18 3e f1 6b 82 be
       0.19588238 0.44686422 0.14857621 -0.25472978
000040 8c 8c 37 3e 35 9d 8d 3d d6 31 a8 3e 42 50 8b 3c
       0.17924708 0.069147505 0.32850522 0.017006043
000050 95 40 a7 bd 50 ec 35 be 19 7a 8d bd c6 af 93 3c
       -0.08166615 -0.17765927 -0.06908054 0.018028151
000060 1e 59 4d be 3b ac 8f 3d 08 a2 c4 3e ae 98 70 bd
       -0.20053527 0.07015272 0.3840487 -0.058739357
000070 5a 03 cc bd 78 a0 f5 bd 33 bc 2f bd 23 e1 33 bd
       -0.09961577 -0.119934976 -0.04290409 -0.04391588
000080 53 f8 45 3e b3 52 39 be 2d c6 3d 3e 33 db 1e 3e
       0.1933301 -0.18097953 0.1853263 0.15513305
000090 22 52 8d 3e 32 77 1f be 93 c9 ea be 92 23 e6 3e
       0.27601725 -0.15572813 -0.45856914 0.44949013
0000a0 4a 13 43 3e c1 92 28 be cd 81 ec 3d d8 d6 dd 3e
       0.19050327 -0.16462232 0.11548195 0.43327975
0000b0 b0 c9 f2 3d 1a 93 e7 be 2e 1e 23 be 3e 8d be 3d
       0.11854875 -0.45229417 -0.15929481 0.093042836
0000c0 4f 28 82 3b 93 5b 63 3e 68 65 fe 3d 61 aa c6 3b
       0.0039720903 0.22202902 0.124216855 0.006062791
0000d0 5f ff 84 3e 69 72 36 bd ba f1 90 bd 85 43 db bd
       0.25976083 -0.044542704 -0.07077356 -0.10706238
0000e0 5c 48 92 bd f7 24 45 3e ff 30 0a 3e 4a 20 15 bd
       -0.07142708 0.19252382 0.13495253 -0.036407746
0000f0 25 bc 94 3d 5b c2 e6 3d 00 f2 d6 3c d6 c7 ab 3d
       0.07262448 0.11267539 0.026238441 0.08387725
000100 1d c4 58 3e 9f 0f 58 3d 0d 02 94 3c a6 19 3e 3d
       0.21168561 0.052749272 0.018067384 0.04641118
000110 b0 33 35 3c 56 04 e1 bd 24 20 2b be e2 45 6b bd
       0.011059687 -0.10987155 -0.1671148 -0.057439692
000120 f1 a0 aa bd a8 98 a8 bc 6e 5c 5c 3e 44 ee 27 be
       -0.083314784 -0.020580605 0.21519634 -0.16399485
000130 8b 20 bb 3d 28 65 c0 3d f9 39 3d 3d 5b 71 e7 bd
       0.091370665 0.09394294 0.046197865 -0.11300918
000140 b9 59 ef bb d2 8b 11 3e 29 c3 22 bd 5d 56 73 bd
       -0.007304397 0.14213493 -0.0397369 -0.059408534
000150 41 b2 9c 3e 92 c0 8c bd 56 5a 7f be a5 5b 9e 3d
       0.30604747 -0.06872667 -0.24936804 0.077323236
000160 60 8e 05 be 58 ee 83 be 5f b1 36 be 24 d2 a6 bd
       -0.13042593 -0.2576778 -0.17841099 -0.0814555
000170 e1 52 44 be bb da 50 bd a2 34 e9 bd 65 90 b0 be
       -0.19172241 -0.050989848 -0.11386992 -0.34485164
000180 3b 9d 16 bd fe 85 44 be d9 e0 5a be 0b 72 d6 3c
       -0.03677104 -0.19191739 -0.21374835 0.026177427
000190 7e 74 a5 bc 6d 4c 8d bd 2d 42 c4 3d 3c 1e 44 3d
       -0.02019715 -0.06899343 0.095829345 0.047880396
0001a0 f6 5b 84 3c 6b e0 ed bb a5 7e 5d 3c 64 ea 43 bc
       0.016157132 -0.0072594187 0.013518964 -0.011957739
0001b0 a2 a6 83 be 49 0c a8 bd e2 8c f0 3d e3 4c 83 3a
       -0.25713068 -0.08205468 0.11745621 0.0010017421
0001c0 5b a6 70 3c 45 d6 1d 3e 66 a9 86 3e fc da 76 bc
       0.0146881 0.15413769 0.26301116 -0.015066858
0001d0 2b 26 30 bd 23 7c 4c 39 b0 0d 0b 3e ea f0 92 3e
       -0.04300515 0.000195012 0.1357944 0.28699428
0001e0 be a3 85 be 81 16 0b 3e c5 03 87 3e 9c b0 8d be
       -0.26101488 0.13582803 0.26370063 -0.27673805
0001f0 8d 59 3a 3e 8b fc a4 3e 13 3e 9c 3e 64 98 80 3e
       0.18198223 0.32223925 0.3051611 0.25116265
000200 d2 54 b6 be 7b 36 8b 3e 68 cf c5 3d fe a5 c2 be
       -0.35611588 0.27190003 0.096587 -0.38017267
000210 4d 53 bf bd 43 ec 21 be 86 60 8f bd 47 0c 69 3e
       -0.0934206 -0.15812783 -0.07000832 0.2275859
000220 87 0a 1a 3d 76 3d e8 bd dd 55 40 3e 67 cf 16 3d
       0.037607696 -0.11339848 0.18782754 0.036818888
000230 64 78 37 be 7b 5c 40 bd f3 a3 be ba 24 20 7b bd
       -0.17917019 -0.046963196 -0.001454471 -0.06130995
000240 ed c3 02 3e 54 3c c7 3d 74 91 42 be 4c 8c ec 3c
       0.12770052 0.097283036 -0.19000798 0.028875493
000250 78 0f 26 3e f8 1d c9 bd cc 25 65 be ae 0c 3c 3e
       0.16216838 -0.09820169 -0.223777 0.18364212
000260 4f 19 3b be ac d3 03 3f 47 f7 c1 bc 5c ea ba 3b
       -0.18271373 0.5149486 -0.023677481 0.0057042073
000270 a2 75 cc 3d 7a d1 0d 3d ce 27 49 bd 38 7b ba bd
       0.09983374 0.0346236 -0.049110226 -0.09105533
000280 bb b8 27 3e 1a 49 4a 3e e9 db 6f bd 8e 86 30 bd
       0.16379063 0.19754449 -0.058559332 -0.04309707
000290 09 78 af bd d9 dc 06 be db 77 4b bd f7 f7 67 bd
       -0.08567817 -0.13170184 -0.04967485 -0.056632962
0002a0 79 80 a8 bd 09 c9 a3 3d c3 05 8b b9 9a 6e 98 bd
       -0.08227629 0.07997329 -0.0002651644 -0.074429706
0002b0 fb 53 5b 3d 60 ac 37 3e ae dd 91 be 22 81 86 3b
       0.053546887 0.1793685 -0.2848944 0.0041047493
0002c0 ff 0a 65 3b a9 6a 87 be ea b4 e8 bc 8f c8 69 3c
       0.003494918 -0.26448563 -0.028406579 0.014269008
0002d0 e6 cf 5d 3d cb e7 0e bd 6f aa 8a 3c bd 61 8f bd
       0.054153346 -0.034889024 0.016926972 -0.07001064
0002e0 37 74 34 3d 33 a8 8a bd 5e 7c a9 3c 26 b6 02 be
       0.044056144 -0.06770363 0.020689186 -0.12764797
0002f0 33 a6 8c 3d f5 85 53 be ce 03 1c 3e 32 15 ec 3e
       0.068676375 -0.2065657 0.15235826 0.4610992
000300 00 75 7e bd d3 d0 1c 3d 5d 95 2f 3e 77 71 f0 3d
       -0.0621233 0.038285088 0.17146821 0.11740392
000310 ea cc 56 bc f2 5a fc bd 86 e1 31 be d8 52 b2 bd
       -0.013110379 -0.12322034 -0.17371187 -0.087072074
000320 e0 2c d6 bc 8e cd c0 bd 3d 4a 34 bd 9f da 4b bc
       -0.026144445 -0.094142064 -0.04401611 -0.01244226
000330 a3 f9 66 3c a2 8b 84 3c 9f e0 d5 bc 9f 2a 00 3c
       0.014097604 0.016179863 -0.026108084 0.007822662
000340 4c 90 71 3d ff 27 04 3d 31 cd 80 bd 2b 53 d2 bd
       0.058975503 0.032264706 -0.06289137 -0.10269769
000350 46 14 7a 3d 3d e0 3d bd 70 72 3e 3d 1a 2b 8c bd
       0.06105449 -0.04635643 0.046495855 -0.068441585
000360 f3 61 be bd f3 b0 cf 3b b2 a3 de bc df f5 79 3d
       -0.09296026 0.0063382327 -0.027177665 0.061025497
000370 b9 43 7c 3c 55 06 85 3c aa 16 20 3d e8 2c 72 3d
       0.015397006 0.01623837 0.039084114 0.059124857
000380 bb 71 0f 3e 2a 41 58 be 89 93 d7 bc ac 6c 14 3e
       0.14008228 -0.21118608 -0.026315467 0.1449458
000390 84 a5 f7 bd 5e 27 26 be 3e a9 86 3d 52 83 94 3d
       -0.120921165 -0.16225955 0.06575249 0.0725161
0003a0 8e 96 ba bd d5 7b 29 be d5 0d 15 3e 2c 6d 1f bc
       -0.09110747 -0.16551144 0.14556058 -0.009730618
0003b0 72 3c c2 bb 01 69 71 bd 10 d4 54 bd 94 7e af bc
       -0.005927616 -0.05893803 -0.05196005 -0.021422662
0003c0 eb 5c e4 bd b9 9c c4 bc 84 70 f9 bd e4 13 bf bd
       -0.11150535 -0.024000512 -0.12179664 -0.09329966
0003d0 01 d6 93 bd 21 d9 a7 bd 71 83 e7 3d a3 43 6c bd
       -0.072185524 -0.08195711 0.11304367 -0.05768169
0003e0 e1 69 da bd 0d 67 4d 3d 5b 10 cc 3d c0 46 b7 bd
       -0.10664726 0.050147105 0.09964057 -0.08949041
0003f0 97 35 31 be 39 29 77 bc bd f9 f7 3e 56 5f 2f be
       -0.17305599 -0.015085512 0.48432723 -0.17126212

conv_block_1.1.bias f4 [12]
000000 4d 53 b7 be aa 03 9d be 96 e6 1e 3d dd a1 5a be
       -0.3580574 -0.30666858 0.038794123 -0.21350808
000010 59 45 b5 bd 2b 9a b3 be b5 2e 75 bd d4 25 75 be
       -0.08851118 -0.35078558 -0.059858996 -0.23940212
000020 69 36 cc bd 4e fd 82 bc df 95 b9 bd 65 ce 84 bd
       -0.099713154 -0.015989926 -0.09061789 -0.06484679

conv_block_2.0.weight f4 [12, 12, 3, 3]
000000 9f b9 96 3b aa ee 97 bd c6 ad 44 3e e1 e9 a9 3e
       0.0045997645 -0.074185684 0.19206914 0.33186248
000010 2b 07 3a be 75 6a 32 be c5 6f 1e 3e e5 94 a0 3e
       -0.18166797 -0.17423423 0.15472324 0.31363598
000020 02 66 9d be cc 5d 91 3d b6 68 51 bd 5d a5 9d 3e
       -0.30741888 0.070979685 -0.05112525 0.30790225
000030 02 74 69 3e 6d d9 be bd 14 64 a7 bd 04 11 7b 3e
       0.2279816 -0.093188144 -0.08173385 0.2451821
000040 34 4d 32 3e ad a3 a8 bc c7 79 09 be 00 d5 75 3d
       0.17412263 -0.02058586 -0.1342536 0.060017586
000050 fe bb 81 be 79 e0 8d be 7c eb b5 ba a5 78 82 3d
       -0.2533874 -0.27710322 -0.0013879384 0.06370667
000060 15 95 03 3d 12 e7 6f be d9 b2 53 3d 54 2e 25 be
       0.032124598 -0.2342799 0.051684234 -0.16130954
000070 fb 8c 34 3f 91 32 8a bd ff 75 03 bf 41 b5 9b 3e
       0.7052762 -0.06747926 -0.5135192 0.30411723
000080 a9 7b 4b 3e f6 21 a3 be c7 0b 0e bd 22 06 81 be
       0.19871391 -0.31861848 -0.0346792 -0.2519999
000090 8b c1 85 3e fb 5e ab 3e 37 2d af 3d 6b ee 5f be
       0.26124224 0.33470902 0.08553546 -0.21868293
0000a0 99 04 0a 3d c2 08 a1 3e 95 53 a4 be 37 95 74 be
       0.03369579 0.31451994 -0.32095018 -0.23885046
0000b0 35 85 d8 bd bd f6 9d be 72 a3 a1 3e 85 25 40 3f
       -0.10572282 -0.3085231 0.3157001 0.7505725
0000c0 c6 9d 97 3e 92 8c 12 bf cf 8c 58 3b e0 87 e5 3e
       0.2961256 -0.57245743 0.0033042913 0.44830227
0000d0 ac 0c b2 bd 9c 38 95 be ca d2 fc 3d 92 4c 04 bd
       -0.08693823 -0.29144752 0.12344892 -0.032299586
0000e0 df 6b 57 3d 56 3c e3 be 1b 05 3a 3d 0a a5 8c 3e
       0.05259311 -0.4438197 0.045415025 0.27469665
0000f0 db 3c d6 be c1 60 60 be b0 b4 33 be 3e 63 a5 3d
       -0.41843304 -0.21911909 -0.17549396 0.080755696
000100 71 07 82 be 2c 40 a2 be 89 2e 96 3d 34 14 1e 3e
       -0.25396302 -0.31689584 0.073330946 0.15437394
000110 34 a6 90 be 07 91 8d bd e8 83 86 bc 83 08 85 bc
       -0.28251803 -0.069124274 -0.01642032 -0.01623941
000120 5a 5b 9d be 2a 6e a2 be f5 58 f2 bd 0f 99 36 be
       -0.30733758 -0.31724674 -0.118333735 -0.17831825
000130 35 9a 5d be ab 99 14 be 1c a2 94 be 07 5b 9e bb
       -0.21640857 -0.14511745 -0.2902993 -0.0048326286
000140 4b 63 c6 bd 6f 3d e8 3d 5e c4 95 3d 51 b1 67 be
       -0.096869074 0.113398425 0.07312845 -0.22626235
000150 9f 11 88 3b d9 f2 89 3e 34 70 5b bd 5b 0e 23 3c
       0.004152491 0.2694309 -0.053573802 0.009952153
000160 01 95 84 3d d0 8f 8d 3e 22 7e af 3e c9 bd 22 3c
       0.06473733 0.27648783 0.3427592 0.009932944
000170 19 78 8e 3e d2 20 d9 3d 55 84 12 3e 8a 16 98 3e
       0.27826002 0.10601963 0.14308293 0.29704696
000180 75 8d 90 be e7 bc 1a 3e d2 b8 9b 3e 30 b1 79 3d
       -0.28232923 0.15111123 0.30414444 0.060959995
000190 33 88 85 be e9 0a a1 bc 69 f0 4e 3e 18 5f 83 3b
       -0.26080474 -0.019658523 0.20208897 0.004009139
0001a0 ad 31 3c be 3e e7 96 bd 4f 38 b0 3c 45 49 cf bd
       -0.18378325 -0.07368325 0.021511225 -0.10121397
0001b0 59 f3 19 bd 30 91 c5 3e 6e dc a9 3e 70 31 55 3b
       -0.03758559 0.38587332 0.33175987 0.0032530688
0001c0 3d 16 ab 3c 86 bd 16 3e 33 31 5c bd ae d3 e0 be
       0.020884627 0.14720735 -0.053757858 -0.439115
0001d0 57 17 b3 3d 20 99 e1 3d 2e b7 b8 3e d5 b3 70 3e
       0.08744686 0.110155344 0.36077255 0.235061
0001e0 b0 b1 c6 bc ce 10 b6 3d 2a ba 96 3e e1 8a 94 bb
       -0.02425465 0.08889924 0.29438907 -0.004533157
0001f0 53 01 58 bd 2d 9b 5d 3c 8b 97 32 3e 30 7e 88 3d
       -0.052735638 0.013525766 0.17440622 0.06664693
000200 88 08 27 ba d4 59 15 3e e3 b5 12 3e e3 70 41 bd
       -0.00063718157 0.14585048 0.14327197 -0.047226798
000210 e2 f2 23 be 3d 65 d3 3d c8 fa 8a 3d bb 4a 02 3f
       -0.16010621 0.10322044 0.06786114 0.5089528
000220 0b 79 f5 3c a8 f6 1e be f5 a3 75 3e 45 b5 ca 3e
       0.029964944 -0.1552378 0.23988326 0.39591423
000230 11 f6 43 be 1b 9b 4a 3c 17 e8 10 bc 3c f0 88 bd
       -0.19136836 0.012366082 -0.008844397 -0.06686446
000240 09 e1 8e 3c 85 91 ba be e7 1e 32 bf e7 48 b0 bd
       0.01744129 -0.36439148 -0.69578403 -0.08607655
000250 63 4e 35 bd c4 34 b2 be 20 78 bc bc 7d 0b 75 3e
       -0.04426421 -0.34805882 -0.023006499 0.23930164
000260 7d 09 29 3e 32 6e a4 3e 77 0b 53 3e f6 e7 6a be
       0.16507526 0.32115322 0.20609842 -0.22940049
000270 73 0e 1e 3e 50 f2 1d 3e cd 18 b4 3e 3e 7f 8e be
       0.154352 0.15424466 0.35175171 -0.27831453
000280 6e 87 3c be 22 ee c0 3e 8f 44 63 3d b8 46 cc 3d
       -0.18411037 0.3768168 0.055485304 0.09974426
000290 14 d1 dd be 9c e4 ea 3d 54 1a 8c 3e 1d 56 b6 be
       -0.43323576 0.11469385 0.27363837 -0.35612574
0002a0 a7 cb 9a bd 93 fe 97 3e f1 cd 5b be a2 dc 25 be
       -0.07558375 0.29686412 -0.21465279 -0.16197446
0002b0 75 b6 c7 3d 4c 3e 12 3e ae 8a 1d 3e 23 99 15 be
       0.09751598 0.14281577 0.15384933 -0.14609198
0002c0 5a 8c 20 be 2d 5b 82 bd 28 21 c6 bd 52 4c b0 3c
       -0.1567854 -0.06365047 -0.09674293 0.021520767
0002d0 a2 47 38 3e 97 bb 69 3e 90 d1 af 3d 31 a9 b2 3c
       0.17996076 0.22825466 0.08584893 0.021809192
0002e0 10 69 e7 3d aa 75 e7 bd 02 f2 59 be 98 06 65 3d
       0.11299336 -0.113017395 -0.21283725 0.05591449
0002f0 78 ac 50 3d 79 93 5a be bb e2 52 be cb 20 b5 be
       0.05094573 -0.21345319 -0.20594303 -0.35376582
000300 54 71 c2 bd 91 c2 25 be 04 0a 9d be b3 d2 63 bd
       -0.09494272 -0.16187502 -0.30671704 -0.05562086
000310 e0 16 57 be 9e 36 8e be 7c 7a 5b 3c 69 74 46 3e
       -0.2100482 -0.27776045 0.013395902 0.19380344
000320 95 48 b0 be 43 10 05 be 68 fd 92 3e 7e 71 3e be
       -0.34430376 -0.12994485 0.2870896 -0.18597981
000330 ef 92 bf be 54 85 6a 3e fc e8 ce be df 7c 75 be
       -0.3741679 0.22902423 -0.40412128 -0.23973416
000340 00 92 b8 3c 43 e7 f1 bd 80 66 85 be 99 81 89 be
       0.022530556 -0.11811688 -0.26054764 -0.26856688
000350 b2 03 16 be ba 2c 8e be df b8 84 be fc 57 48 be
       -0.14649847 -0.277685 -0.25922295 -0.19564813
000360 d6 f5 11 be bd 2c d0 bd cd 8b 8a bd 12 3d ab bd
       -0.14253935 -0.10164783 -0.06764946 -0.083612576
000370 74 e9 8a bd 2e 4e 40 3d 9d 84 8b 3d 11 20 69 3d
       -0.06782809 0.046949558 0.06812403 0.056915347
000380 65 3d 0f 3d 4c 68 97 be 91 c1 4e be 69 a9 58 be
       0.03497066 -0.2957176 -0.20191027 -0.21158375
000390 60 85 a2 bd 3a 27 21 be fa dd 67 be 42 ba f0 3d
       -0.079355955 -0.1573762 -0.22643271 0.11754276
0003a0 84 0c 8f be 22 4f 4c 3d 69 ab 3f 3e f8 91 80 3d
       -0.27939236 0.049880154 0.18717732 0.06277841
0003b0 e7 91 c7 3c 16 26 02 3d cb c2 ca 3b 86 6e 21 be
       0.024361564 0.031774603 0.006187772 -0.15764818
0003c0 43 0d 07 3d 8b a0 14 3e 84 10 da bd 75 be 73 3d
       0.03297163 0.14514367 -0.10647681 0.059507806
0003d0 a4 cb 95 be f9 0b 6d be 75 5f 8a bd ae a1 7e bd
       -0.29256928 -0.23149098 -0.06756488 -0.06216591
0003e0 95 50 df bd b9 02 8b be ae c4 9a 3e 09 d5 c9 3d
       -0.10904042 -0.27150515 0.3022818 0.09855086
0003f0 c7 8b de 3d a2 64 4a 3e f8 49 2b be 36 0d 8d 3e
       0.10866504 0.19764951 -0.16727436 0.27549142

conv_block_2.0.bias f4 [12]
000000 38 21 71 bd b4 44 30 bf 9a ff ba bc bb f3 69 3e
       -0.05886957 -0.6885483 -0.022826958 0.22846882
000010 e5 97 6c bd 55 01 58 3e 03 3c da bd 13 51 81 be
       -0.057762045 0.21094258 -0.106559776 -0.25257167
000020 d6 8a ec 3c eb 34 cb 3c 12 54 71 bf df 24 47 be
       0.028874796 0.024805507 -0.94268906 -0.19447659

conv_block_2.1.weight f4 [12, 12, 3, 3]
000000 a2 51 24 bd 5d 3f 41 3d ec d6 8e bd d3 71 72 3e
       -0.040116914 0.04717957 -0.06974587 0.23676233
000010 71 42 9b 3d df b6 0c be 72 08 c6 3d 67 6f 00 3e
       0.07581032 -0.13741635 0.096695796 0.12542497
000020 e9 08 e9 3d e0 b7 97 be d7 13 5f 3e fd 37 a3 3e
       0.113786526 -0.29632473 0.21784912 0.31878653
000030 60 17 e8 bc 5a 88 cc 3d 03 83 d5 3d 05 07 3d be
       -0.028331459 0.099869445 0.10425379 -0.18459709
000040 ae da fd 3d 16 4f 9a bd 04 39 35 3e 7f 12 f5 3d
       0.123952255 -0.07534616 0.17697531 0.119664185
000050 1b e6 a8 bd 1a b8 21 3e 45 ec 0d 3e f4 b2 1a 3d
       -0.08247014 0.15792885 0.13859661 0.03776832
000060 2f 1d 75 bd be cd 58 bd fa 59 35 3d 05 67 28 3e
       -0.059842285 -0.052930586 0.04427526 0.16445549
000070 0d c1 7c bd 29 e8 13 be a6 b2 25 3e 7b 7c d8 3d
       -0.061707545 -0.14444031 0.1618143 0.10570618
000080 07 a8 18 bd 9e 21 11 3e 1b 92 d5 3d 5d 7b f8 bd
       -0.03726962 0.1417298 0.10428258 -0.12132905
000090 0a ff 25 bd 4b 91 be 3d 03 45 85 3e da 48 66 3d
       -0.040526427 0.09305056 0.26029214 0.05622182
0000a0 b4 f5 39 3e 44 36 c8 be 83 07 e1 bd 6b 2f 88 3e
       0.18160135 -0.391039 -0.10987761 0.26598677
0000b0 d0 70 ae be c9 19 09 3e 2d 87 d0 3d 24 6e b8 3e
       -0.34070444 0.13388743 0.10182033 0.3602153
0000c0 a8 bc 95 3d 50 3d 15 be 94 e2 83 ba e4 62 8b be
       0.07311374 -0.1457417 -0.0010062032 -0.27223885
0000d0 36 9a 31 be 6d 11 fb bd 53 4d 5c 3e 82 43 88 3c
       -0.17343983 -0.12259183 0.21513872 0.016633753
0000e0 b8 bc a9 3e 8e b0 45 be 55 92 c0 bd ec 19 2c 3e
       0.33151793 -0.19305632 -0.094029106 0.16806763
0000f0 c7 2c c9 bd 7f 4c 78 bd 06 1a 13 3e 54 c6 ff 3c
       -0.09822994 -0.060619827 0.14365396 0.0312225
000100 ca 07 59 3d b3 3d c5 3d 5f f9 93 3d 40 9c 9a 3d
       0.052985944 0.09630909 0.07225298 0.075493336
000110 19 66 45 3c e0 19 8a 3e d1 29 d9 3d e3 2f 9a 3e
       0.012048268 0.26972866 0.10603679 0.3011466
000120 56 a4 1e be 94 f4 b9 3c d5 54 41 3e 11 bd e7 3c
       -0.15492377 0.022699632 0.18880017 0.028288396
000130 c0 2a c4 3a 07 42 8c 3c 6b a3 00 bd d6 b6 56 be
       0.0014966354 0.017121328 -0.031405848 -0.20968184
000140 24 70 47 bc 37 ef 4f 3d dd f0 97 bc 11 c3 19 bd
       -0.0121727325 0.050765242 -0.01854747 -0.037539545
000150 38 6b 37 be 43 47 16 3c bb 37 b1 bd 4f 81 e6 bd
       -0.17911994 0.009172264 -0.08653208 -0.112551324
000160 3d 03 09 be 18 5d 12 be 09 3d c2 bd 41 70 ac bc
       -0.13380142 -0.14293325 -0.09484298 -0.02104962
000170 63 df 9b bd 3a 13 33 3e 06 4f 34 3d 12 50 20 be
       -0.07610967 0.17487803 0.044020675 -0.15655544
000180 97 0f 9f bd 9c e4 97 3d 20 10 15 3e 6c f2 7c be
       -0.077666454 0.07416651 0.14556932 -0.24701852
000190 b8 4a da bc 17 33 09 be 80 0c 81 3e 78 5b 2b bd
       -0.026646957 -0.13398395 0.2520485 -0.04183528
0001a0 ae 10 c2 be 3b 9f 64 3d f3 71 66 be 66 70 e4 bc
       -0.3790335 0.055815917 -0.22504406 -0.027885627
0001b0 8d 87 43 3e 98 ee 90 3d 93 cf cb be 26 c0 66 3e
       0.19094677 0.07076758 -0.39806804 0.22534236
0001c0 6e b2 8e 3d b6 51 b7 bd 33 1d 19 3e 17 6c c0 3e
       0.069676265 -0.08951132 0.14952545 0.37582466
0001d0 42 9e e9 bd 98 8a e5 3d 3b b2 c1 3d 38 69 6e 3e
       -0.114071384 0.11208075 0.09457823 0.23282325
0001e0 eb 24 c9 3c 71 ef 27 3d 4d 05 08 3e ca f8 05 be
       0.024553737 0.040999833 0.13283272 -0.13083187
0001f0 ed b0 57 3e 9d 59 aa 3d ec 26 08 3e 25 3b 22 be
       0.21063586 0.083178736 0.13296098 -0.15842874
000200 3a 33 9f bd 99 a7 34 be b7 b5 95 3d 2a 60 7b be
       -0.077734426 -0.17642058 0.0731005 -0.24548402
000210 40 73 bc be 40 9d c0 3d 0a 37 9d bd e9 c3 9f be
       -0.3680668 0.09404993 -0.076765135 -0.31204155
000220 f9 cb 60 be 6b ec dd 3d a9 82 e1 be d9 46 b5 bd
       -0.2195281 0.10836109 -0.44044998 -0.08851404
000230 f4 28 7a bc 97 f1 43 be f8 3e 13 bd 89 eb 66 3c
       -0.015268553 -0.19135128 -0.035948724 0.014094242
000240 cd 46 a1 be 36 b5 9f 3c 46 da c1 bd 6e 3e 7a 3e
       -0.3149933 0.019495588 -0.094654605 0.24437878
000250 f0 2e 0d 3e c2 89 72 be 77 e6 e6 3e 9c 0c 60 3e
       0.13787436 -0.23685363 0.45097706 0.2187981
000260 2b 2a bd 3d 81 66 09 bd ce c7 70 be 86 86 07 be
       0.092365585 -0.03354502 -0.2351372 -0.1323491
000270 fd 61 46 be 6d 14 b2 be ee a3 4c be a6 82 b9 be
       -0.19373317 -0.3478121 -0.19984409 -0.3623249
000280 fa 89 35 be 3d 5c 90 bd a0 ae ac 3c b1 ad 86 bd
       -0.17728415 -0.07048843 0.021079361 -0.06576098
000290 0d 1a 8c be b0 b8 3c bd 9d 6c a5 be 23 32 a2 be
       -0.27363625 -0.04607457 -0.32309428 -0.31678876
0002a0 d4 94 a4 bc 4b 49 46 be 83 9d f8 bb bb e5 65 3e
       -0.020090498 -0.19363897 -0.0075871362 0.22450916
0002b0 6d 31 f9 3d 73 42 cd bd da 4a b3 3e 58 a6 d0 3d
       0.1216763 -0.1002244 0.35018045 0.101879776
0002c0 96 65 41 3d 67 3b 92 3e 37 48 b8 3c c2 cb 8b 3e
       0.04721602 0.28560945 0.022495372 0.27303892
0002d0 b3 d5 21 be c4 0e 4b 3c ee 77 50 3d aa df c8 3d
       -0.15804176 0.012393657 0.050895624 0.098082855
0002e0 13 74 11 bd 13 30 91 3e 35 72 40 3e 27 84 53 bb
       -0.035511088 0.2835699 0.18793567 -0.0032274814
0002f0 50 10 bc 3d fb c9 8e 3d 10 60 82 3e 8e 2c 13 3f
       0.09182799 0.069721185 0.25463915 0.5748986
000300 19 58 e4 bb 66 b6 56 3e 83 89 3a 3e 3b e8 24 bd
       -0.00696851 0.20968017 0.18216519 -0.040260535
000310 6d f6 39 3e 4b 3b 0d 3e 0f d8 e7 3e e4 af 19 3e
       0.1816041 0.1379215 0.45282027 0.15008503
000320 32 33 0d bf 08 0c 29 3f 40 ee 2c 3e 91 ac ab be
       -0.5515624 0.66033983 0.1688776 -0.33530095
000330 bb e5 20 3f e9 2b fc 3d dd 50 9f be fb 44 4c 3d
       0.6285054 0.12313063 -0.3111638 0.049870472
000340 19 21 d1 3e 94 01 59 3f 60 53 08 3f 32 63 ac 3e
       0.40845564 0.84768033 0.5325222 0.3366943
000350 81 4b c0 3e 65 e6 3b be ea 07 58 be 6d 78 02 be
       0.37557605 -0.18349607 -0.21096769 -0.12741251
000360 31 fc 37 3e ca 24 5f be 85 43 13 bd 82 2a 00 3d
       0.17967297 -0.21791378 -0.035953064 0.03129054
000370 6f 58 89 be a8 35 3e be f6 57 fd bc 10 6c 30 be
       -0.26825282 -0.18575156 -0.030925732 -0.17228723
000380 3c fa ce bd 2d 4c a0 be 76 b7 a3 3e e4 67 4a 3d
       -0.10106322 -0.31308118 0.31975907 0.049415484
000390 9e d4 b1 be f0 be 4a 3e fa 74 85 3c 14 d1 5a be
       -0.34732527 0.197994 0.01629113 -0.2136882
0003a0 00 f0 81 3e 46 cc 11 3e 4d 23 28 3d 38 0e 21 be
       0.25378418 0.1423808 0.04104929 -0.1572808
0003b0 4b 1e 85 3b 2e 62 c5 36 02 8e 2d 3d ae e6 51 3e
       0.004062449 5.882487e-06 0.042371757 0.20498154
0003c0 16 dc 00 3d 16 b1 c4 bd 0e 6c d4 bd 7e d8 49 3d
       0.03145989 -0.09604089 -0.10372172 0.04927873
0003d0 d5 ac 87 be be 16 ba 3d 09 ff 18 be 18 eb 35 3c
       -0.26499048 0.09086369 -0.14941038 0.011103414
0003e0 db 7f da 3d a0 c6 f3 bc c0 bc 90 bd c3 36 9e 3d
       0.10668918 -0.029757798 -0.07067251 0.07725289
0003f0 4e 5d 3a be 6c 19 54 3d aa e5 46 be a4 bf 3a be
       -0.18199655 0.051782057 -0.19423547 -0.18237168

conv_block_2.1.bias f4 [12]
000000 77 17 48 bf c5 ca 9d bd da 15 2b be 97 28 20 bf
       -0.78160805 -0.07704691 -0.16707554 -0.62561935
000010 9b 95 10 bf d1 fa d2 be 03 d5 77 bf c6 d8 0c bf
       -0.5647828 -0.41206983 -0.96809405 -0.5501827
000020 8c 25 5a bf 9b 56 68 bf 14 31 59 bf 21 8c ff be
       -0.8521354 -0.9075715 -0.8484051 -0.49911597

classifier.1.weight f4 [24, 588]
000000 f0 8a 91 ba 32 cb dc bc ed 41 2f be 35 27 c4 bb
       -0.0011104029 -0.02695236 -0.17114992 -0.005986119
000010 4c 61 28 bd 41 24 bb be 34 ca 5c 3f 5d 25 87 3d
       -0.041108415 -0.36551097 0.8624604 0.06598923
000020 e0 10 c0 bd 7d cf e7 3d 79 59 ac 3e 3a b1 f6 3d
       -0.09378219 0.11318872 0.33662012 0.12045522
000030 b8 b6 b3 be 8c 7e 97 3e 5e 69 79 3e df 74 16 bf
       -0.3510034 0.29588735 0.243566 -0.5877208
000040 9d a4 0f 3f c5 4a 06 bf d0 6d d6 be e2 25 55 3d
       0.56110555 -0.5245784 -0.41880655 0.05203808
000050 56 91 59 3f 3f e0 70 3c b1 36 be be 4b 5d 2b be
       0.8498739 0.014701902 -0.371511 -0.16734807
000060 c4 d7 96 be 6a 40 7e bf 20 f7 22 3c b2 8a 80 3f
       -0.2946149 -0.9931704 0.0099466145 1.0042326
000070 c2 b5 1a be 7c d5 62 be 58 af 91 3e 9c 45 06 3e
       -0.15108398 -0.2215175 0.2845409 0.13112491
000080 62 45 06 be 74 13 a8 bc 48 54 ca 3e f6 8a c5 be
       -0.13112405 -0.020517088 0.39517426 -0.3858258
000090 84 be e2 3e f1 e5 8f 3e ef bd c4 be c0 2d 83 3d
       0.44285977 0.2810512 -0.38426158 0.064052105
0000a0 f1 3c cf 3d 7c 79 b2 3e d1 d4 ec 3d 86 ad 08 3f
       0.101190455 0.3485831 0.11564029 0.53389776
0000b0 06 88 b8 3e ec 66 c0 be 54 79 2d be 17 9b 74 3e
       0.36041278 -0.37578523 -0.16940814 0.23887287
0000c0 05 c4 59 3e ff fd b9 3d 5e a5 c0 3e af bc 2d be
       0.21266182 0.09081649 0.37626165 -0.16966508
0000d0 b4 d3 5b be cd 27 a9 be ad 40 97 be 7c a8 99 3e
       -0.21467477 -0.33038178 -0.2954153 0.30011356
0000e0 3d 31 89 3c e9 85 9d 3e 6f da 14 3f 4c 13 95 bd
       0.016747111 0.30766228 0.58145803 -0.07279071
0000f0 1c c1 ab 3e 3b 4d 29 3f f4 54 a4 3e a9 c3 fb 3d
       0.33545768 0.6613347 0.32096064 0.122931786
000100 ab e0 0f 3e b0 b8 41 3f 8b 0e 99 bd e0 03 46 3f
       0.14050548 0.75672436 -0.07473477 0.7734966
000110 b1 0d 86 3f 78 6a 81 3f 6f 28 61 3d bd 3c fb 3e
       1.0472928 1.0110617 0.0549702 0.49069777
000120 2c e4 b5 3e d2 de 94 be 5b 82 c8 3e 55 a4 0d 3e
       0.35525644 -0.29076248 0.39161953 0.13832219
000130 98 e0 0c 3f 16 7a 4b 3e 8c 66 fd 3e 06 51 f7 bd
       0.550302 0.19870791 0.494923 -0.12076001
000140 ed 89 75 bf 8b 73 64 be 87 a7 e9 3e 6b b6 93 bd
       -0.95913583 -0.22309701 0.45635626 -0.07212528
000150 21 dc af bc a4 46 bf be 08 6b 03 bd 90 88 6b be
       -0.02146727 -0.37358582 -0.032084495 -0.23001313
000160 0a 43 85 3d 38 db d4 3c c9 c2 c1 be 9a 14 f7 3d
       0.06506927 0.025983438 -0.37843922 0.12064476
000170 fd c2 2d bf 65 48 85 be dc 26 9c 3e fe ae 7d 3e
       -0.67875654 -0.26031795 0.30498397 0.24773785
000180 a7 70 80 bf 30 c1 a6 be 54 1d 0f 3f a9 7f 23 3f
       -1.0034379 -0.32569265 0.55904126 0.6386667
000190 4e 1e 67 3d c5 b6 69 3e 4a 15 95 3d 9d e9 12 3e
       0.056425385 0.22823627 0.07279451 0.14346929
0001a0 ac 41 ea 3e c5 11 e0 3e 9e 39 8f 3e 22 99 bc 3e
       0.4575323 0.43763557 0.27973646 0.3683558
0001b0 6a bc 5c be 49 a5 08 3f e5 13 52 3e df 39 9a 3e
       -0.2155625 0.53377205 0.20515402 0.30122277
0001c0 fe 02 05 3f da 62 27 3e b4 21 10 3f ff cb da bd
       0.5195769 0.16346303 0.56301427 -0.106834404
0001d0 0c 9c 1d 3f 0b 2f 1b 3e ae c9 17 3f 60 8f 05 3f
       0.61566234 0.15154664 0.59292114 0.521719
0001e0 86 60 41 3e 54 30 0f 3e df 35 9c be ae c4 70 3e
       0.18884477 0.1398328 -0.3050985 0.23512527
0001f0 be 26 85 3c 00 80 78 3e 9c b1 b8 3e 7b 1d c2 3e
       0.016253825 0.24267578 0.36073005 0.37913117
000200 0b fe 06 3e 01 5e d6 be db f1 f6 3d f7 b9 51 3e
       0.13182847 -0.41868594 0.12057849 0.20481096
000210 91 e1 1f bf 6f 36 94 3d af 10 a6 3e 01 fe 5d 3e
       -0.6245356 0.07236945 0.32434604 0.21678926
000220 55 89 e0 be 5f 1d 0f 3e af cc 8f 3c 1f 04 f5 bc
       -0.43854776 0.13976048 0.017553655 -0.029909192
000230 41 52 1f bb ff 68 9b 3d 4d c5 95 3d d2 f3 4e 3e
       -0.0024310502 0.07588386 0.07313023 0.20210198
000240 6b 0b 98 3e 04 6f 61 be 1c 96 10 3e d0 99 90 3e
       0.2969621 -0.22015005 0.14119762 0.2824235
000250 53 0c 46 3e 77 76 70 3e 13 77 2e bd ee 89 14 3e
       0.19340639 0.23482691 -0.042594027 0.14505741
000260 40 d7 14 bd d0 74 a3 3e d1 17 5e 3e c9 58 8f 3e
       -0.03633809 0.31925058 0.21688773 0.27997425
000270 91 47 1d 3f f5 a9 db bd b9 4d 9b bb 96 c7 12 3e
       0.61437327 -0.10725776 -0.00473949 0.14333948
000280 d7 90 09 3f 43 3b 8b 3e f4 f8 65 3e bf 7a 22 bf
       0.53736633 0.2719365 0.2245825 -0.63468546
000290 a2 ca 27 bd e6 b7 f2 3d ae 7d e8 3e 29 ad af 3e
       -0.04096473 0.11851482 0.45408386 0.34311798
0002a0 6a dd b9 3d df 9a 0a 3f 0d 3b 30 be 08 ef 05 be
       0.090754345 0.54142565 -0.17210026 -0.13079464
0002b0 4a ac fd be 04 4a f2 3e ba 17 f1 bd 6e 30 80 3e
       -0.4954551 0.47322094 -0.117721036 0.2503695
0002c0 5e 47 4a 3e da dc 2d bf 6e 67 23 be da 02 fa bc
       0.19753787 -0.6791512 -0.15957424 -0.030518938
0002d0 26 d5 dc bd a3 a7 11 3f ae ec 14 3e f3 84 4f 3e
       -0.10782842 0.5689642 0.14543411 0.2026556
0002e0 7e d8 c0 be e9 3e 69 3e d2 08 ce 3e 1e e0 42 3f
       -0.3766517 0.22777905 0.40241104 0.76123226
0002f0 df 8c 34 3f 6b 46 b9 be 91 02 90 bd f9 74 7c 3d
       0.7052745 -0.36186537 -0.070317395 0.06163499
000300 8d ae 12 ba ab 24 2e bf f4 06 e3 bd 32 75 11 be
       -0.0005595468 -0.680247 -0.110853106 -0.14204863
000310 0e fc 30 3f 4e 82 88 bd 2f 24 cc 3e 56 e9 5c be
       0.69134605 -0.06665479 0.39871356 -0.21573386
000320 8f e0 71 3e 3d 6a 28 3e 8a 1c ea 3d ed 68 91 3e
       0.23620819 0.16446777 0.11431225 0.28400365
000330 59 ce 0f 3d 06 b5 09 bb 64 29 29 be ba b0 10 be
       0.035108898 -0.002101244 -0.16519696 -0.14129916
000340 dd 20 c5 be 37 6c dd 3e a5 36 d3 3d 90 9f 0f 3f
       -0.38501635 0.43246624 0.10313157 0.5610285
000350 b4 ed 54 bf 8d 4c be be 3f f8 a4 be a6 23 41 be
       -0.83175206 -0.3716778 -0.32220647 -0.18861255
000360 26 00 37 bf 0a 8c ba 3d 71 fc fd 3e df d1 cc 3d
       -0.714846 0.091087416 0.4960666 0.10000967
000370 66 f9 ed 3e f2 9a 57 3e f6 48 85 bf c9 5c 08 bf
       0.46479338 0.210552 -1.0412891 -0.5326658
000380 c6 97 8e 3e 97 62 ee 3d fa 72 d7 bd e9 1d 26 3f
       0.2785017 0.11639898 -0.10519977 0.6488939
000390 0c d6 f0 3e c4 29 c0 3d c4 a3 58 3e d5 f5 f8 be
       0.47038305 0.09382966 0.21156222 -0.48625055
0003a0 8b 88 13 3f 08 9f 60 be 55 df f4 bd ed 25 ad bc
       0.57630223 -0.21935666 -0.1195666 -0.021136248
0003b0 41 c7 38 3d 5c ff cc 3e 0b cc 05 bf f6 f0 5b be
       0.0451119 0.40038574 -0.5226447 -0.21478638
0003c0 6b 71 b7 3e a9 9f f6 3c d2 8a d3 be 36 7c 56 3e
       0.3582872 0.030105429 -0.4131685 0.2094582
0003d0 29 d1 24 3f 8d e7 10 3e b7 1c 29 3e f1 f7 71 3c
       0.64381653 0.1415083 0.1651486 0.0147685865
0003e0 cb d6 9e bd 4e 7c 2b 3d 53 8d 57 be 18 26 8c be
       -0.07755812 0.041866593 -0.21050005 -0.27372813
0003f0 45 15 18 be 7c 8d e5 3d 72 88 04 be 2c e0 85 be
       -0.14851864 0.11208627 -0.12942675 -0.26147592

classifier.1.bias f4 [24]
000000 7c 3b 0f be 35 68 83 bc 37 ca a9 be 66 f3 19 be
       -0.13987535 -0.0160409 -0.3316209 -0.15034255
000010 00 9b 0c be 1c f8 21 3e 3f 3b 06 be fe e4 8c 3d
       -0.13731003 0.15817302 -0.13108538 0.06879614
000020 63 7b 8b 3c 88 1d 44 3e f5 bb 11 3d 8b c3 84 bd
       0.017026609 0.1915189 0.03557964 -0.06482609
000030 33 d2 9e be 6e 7e 80 be a9 f5 46 3e 40 6a 33 be
       -0.31019744 -0.25096458 0.1942965 -0.17521
000040 b9 23 ef 3d 32 f8 ec 3d e3 49 ad 3e e0 4b ee bb
       0.116767354 0.11570777 0.33845434 -0.0072722286
000050 5a f2 26 bb 28 e4 3a 3e 24 60 61 3e 00 72 1e 3d
       -0.0025474043 0.18251097 0.22009331 0.038682938
