Projects/best_model1.pth (torch, 76592 bytes, 10 tensors)

conv_block_1.0.weight f4 [12, 1, 3, 3]
0	0x3d81c236	0.06335871
1	0xbd281b76	-0.041041814
2	0xbdc138ed	-0.09434686
3	0xbe0a5bbd	-0.13511558
4	0x3e11bf78	0.14233196
5	0xbe8040a8	-0.2504933
6	0x3e46ca93	0.19413213
7	0x3d47afd2	0.04875166
8	0xbd82d9b2	-0.06389178
9	0x3c4afb59	0.0123890275
10	0x3ea99ddb	0.33128247
11	0xbe825190	-0.25452852
12	0xbc5172ae	-0.012783689
13	0xbd044fa3	-0.03230251
14	0xbd5fbbc3	-0.054622423
15	0xbe7a9dd4	-0.24474269
16	0x3ea44403	0.3208314
17	0x3d04788a	0.032341518
18	0x3e6c8cce	0.23100588
19	0x3e1812b6	0.14850888
20	0xbe85c5e4	-0.2612754
21	0xbe1466f9	-0.14492406
22	0x3e065778	0.13119304
23	0x3e0936c9	0.13399805
24	0xbe1214bc	-0.14265722
25	0xbe852112	-0.26001793
26	0x3d1143fc	0.035465226
27	0x3e047bff	0.12937926
28	0x3df5d376	0.120032236
29	0xbdeee6b7	-0.11665099
30	0x3d7e9948	0.0621579
31	0xbeb51058	-0.35364032
32	0xbdf7eb50	-0.12105429
33	0xbbefcb00	-0.0073179007
34	0xbdc2a6e4	-0.09504488
35	0x3e5c61ee	0.21521732
36	0x3dbea10f	0.09308063
37	0xbe6cf310	-0.23139596
38	0xbe1d7ea0	-0.15380335
39	0xbe8535fa	-0.26017743
40	0x3d8ca17d	0.06866739
41	0x3e9ad1c2	0.30238158
42	0x3ed98699	0.42485502
43	0xbe6d04f1	-0.23146416
44	0xbe17620c	-0.14783496
45	0xbc89ddc8	-0.016829386
46	0xbd2795e8	-0.040914446
47	0x3dd50976	0.10402195
48	0x3e32771b	0.17428248
49	0xbdff0429	-0.12451965
50	0x3e574f72	0.210264
51	0xbea04ba7	-0.31307718
52	0x3e80570e	0.25066417
53	0x3e02405d	0.12719865
54	0x3e8da62d	0.27665845
55	0xbe56a8a0	-0.20962763
56	0x3d5b80a4	0.053589478
57	0xbe5dd311	-0.21662547
58	0xbe5ffcd8	-0.21873796
59	0xbe80c4f6	-0.2515027
60	0x3e4b0642	0.19826606
61	0xbc93017c	-0.017945044
62	0x3e9a1e0c	0.3010105
63	0x3e172899	0.1476158
64	0xbd738619	-0.059454057
65	0x3d6dd376	0.058062993
66	0x3e3dec61	0.18547203
67	0xbe93605e	-0.2878446
68	0xbe6aa258	-0.22913492
69	0x3e89174c	0.26775587
70	0xbe5661c7	-0.20935737
71	0xbd830f5f	-0.06399416
72	0xbe400a36	-0.18753895
73	0xbdab3e9c	-0.08361551
74	0xbe165289	-0.14679922
75	0xbe9dee78	-0.30846
76	0xbc01ade2	-0.007914992
77	0xbd211e1d	-0.03933536
78	0x3db768ea	0.08955558
79	0x3ea90a3f	0.3301563
80	0x3e8e48ad	0.27789822
81	0xbe2e638c	-0.17030162
82	0xbe02f284	-0.12787825
83	0x3c644247	0.013931817
84	0xbd48fee1	-0.049071196
85	0x3ebde290	0.37086916
86	0x3df12fc9	0.117766924
87	0x3e44afa8	0.19207633
88	0x3db52c8e	0.08846389
89	0xbe09e51f	-0.13466309
90	0xbe4b22d7	-0.19837509
91	0x3dec1573	0.115275286
92	0x3db91b06	0.090383574
93	0x3e6c76c4	0.2309218
94	0x3e1f5fbe	0.15563866
95	0xbeb1bdb5	-0.34715047
96	0x3d717d56	0.05895742
97	0x3dce9a38	0.10088009
98	0x3c99991b	0.018749764
99	0xbd131562	-0.035909064
100	0xbcd09ea4	-0.02546627
101	0x3ea10920	0.31452274
102	0xbe3e0401	-0.18556215
103	0xbe396d92	-0.18108204
104	0x3e36a149	0.17834963
105	0xbe683b43	-0.22678857
106	0x3d912109	0.07086379
107	0x3e211bf4	0.1573332

conv_block_1.0.bias f4 [12]
0	0x3d19b4da	0.03752599
1	0xbdb88ef4	-0.09011641
2	0x3df4917f	0.11941814
3	0x3de5a8e7	0.11213856
4	0x3d111054	0.035415962
5	0xbea2315c	-0.31678283
6	0x3cc242b3	0.023713445
7	0x3df97001	0.12179566
8	0x3d040ddb	0.032239776
9	0xbe7aee29	-0.24504913
10	0xbe379523	-0.17927985
11	0x3b72a6b0	0.0037025623

conv_block_1.1.weight f4 [12, 12, 3, 3]
0	0x3d86b21c	0.065769404
1	0xbd407a81	-0.04699183
2	0x3dab8cfa	0.083764985
3	0x3bec1841	0.0072050397
4	0x3d0da6fb	0.034583073
5	0x3d2067af	0.03916138
6	0xbe38b503	-0.180378
7	0xbe0807e5	-0.13284262
8	0x3e578c32	0.21049574
9	0xbe3dab9e	-0.18522498
10	0xbde54678	-0.111950815
11	0x3df1c4b4	0.11805096
12	0xbd4764fe	-0.048680298
13	0xbc6b36c2	-0.014356317
14	0x3db345c0	0.08753538
15	0xbe7dd0ab	-0.24786632
16	0xbce47441	-0.027887465
17	0x3e487347	0.19575225
18	0x3e14362e	0.14473793
19	0x3d53da80	0.05172205
20	0x3cf23f93	0.02957133
21	0xbd72b011	-0.05924994
22	0x3d336013	0.043792795
23	0xbd6423df	-0.05569827
24	0xbe11d446	-0.14241132
25	0xbde25823	-0.11051967
26	0xbc881f46	-0.016616475
27	0x3e5f3f9f	0.21801613
28	0x3e271f42	0.16320518
29	0xbe0b9f9d	-0.13635106
30	0x3e3d072e	0.1845977
31	0x3bc1d7f2	0.0059156353
32	0x3b484ea2	0.0030564447
33	0xbbf90a69	-0.007600118
34	0x3d1dad34	0.038495257
35	0xbdf88ed7	-0.121366195
36	0xbe049889	-0.12948813
37	0xbd2033a4	-0.03911175
38	0xbe1be597	-0.152243
39	0x3d2994e6	0.041401766
40	0x3dde6dc4	0.1086078
41	0xbc82fd05	-0.01598979
42	0x3d330a80	0.043711185
43	0xbd91d81e	-0.07121299
44	0xbd20bd3c	-0.039242968
45	0xbe131db1	-0.14366795
46	0x3d122418	0.035678953
47	0xbda7c8fa	-0.0819263
48	0xbe14ecb0	-0.14543414
49	0x3d74740a	0.059680976
50	0xbc689f40	-0.014198124
51	0xbd89fcf3	-0.06737699
52	0x3d0e4d34	0.034741595
53	0x3dde5083	0.108552
54	0x3e2e2f65	0.17010267
55	0x3dc273da	0.09494753
56	0xbd52d4e6	-0.051472567
57	0x3e3dd9dc	0.18540138
58	0x3e2504de	0.16115138
59	0xbd84db73	-0.06487169
60	0x3dc9a394	0.09845653
61	0xbdedaf25	-0.11605672
62	0xbe45f578	-0.1933192
63	0x3e7c9e97	0.24669872
64	0x3d96ca9f	0.07362866
65	0xbdc01722	-0.09379412
66	0x3e3ad2aa	0.18244424
67	0x3cba3398	0.02272968
68	0xbe7e8934	-0.24857026
69	0x3e2ee3fd	0.17079158
70	0xbe7852af	-0.24250291
71	0xbe3e3924	-0.18576485
72	0xbe10625c	-0.14100021
73	0x3c4ce8c0	0.012506664
74	0x3c99f433	0.018793201
75	0x3dff6e6d	0.12472234
76	0x3e36c6e6	0.17849311
77	0x3dfb5c4f	0.12273466
78	0xbd270e4b	-0.040785115
79	0x3df37d1f	0.11889099
80	0x3dc9a3f8	0.09845728
81	0xbea15381	-0.3150902
82	0xbe0e4285	-0.13892563
83	0xbcbdc11e	-0.023163375
84	0xbe0b62f3	-0.13611965
85	0xbc32c8d0	-0.010912135
86	0x3e1ac83d	0.15115447
87	0x3e18f8ce	0.14938661
88	0x3e6f0218	0.23340642
89	0x3ddd3fc2	0.108031765
90	0xbdedb018	-0.11605853
91	0xbdb300da	-0.08740397
92	0x3b7df2ff	0.0038749573
93	0xbe545484	-0.20735365
94	0x3cff3de8	0.031157449
95	0x3dbef75f	0.09324526
96	0x3d8b871a	0.06812878
97	0x3d16f6e6	0.036856554
98	0x3e45a5fe	0.19301602
99	0x3dd705d6	0.1049916
100	0x3e03ffa8	0.12890494
101	0x3d6d9faa	0.058013596
102	0x3c1265d1	0.008935408
103	0x3dc59384	0.09647277
104	0xbdc110a0	-0.09426999
105	0xba476693	-0.00076065323
106	0x3e03b70d	0.12862797
107	0xbe2557b7	-0.16146742
108	0xbdfd39b7	-0.12364524
109	0xbce43b32	-0.027860258
110	0xbda0cbf6	-0.078514025
111	0xbe2881e8	-0.16455805
112	0xbc85c87d	-0.016330952
113	0xbe18b3b7	-0.14912306
114	0xbe3c37e3	-0.18380694
115	0xbb97a0ea	-0.0046273367
116	0xbd118673	-0.03552861
117	0x3c2341bc	0.009964403
118	0x3d9ca1d5	0.076480545
119	0xbbf8472b	-0.0075768433
120	0xbd9bbf6f	-0.076048724
121	0x3c5e3fc0	0.013565004
122	0x3e21c19b	0.15796511
123	0x3c24048a	0.010010848
124	0x3db95a43	0.09050419
125	0x3e74e5a4	0.23915726
126	0xbd96c772	-0.0736226
127	0xbdae5550	-0.08512366
128	0xbe750ffa	-0.23931876
129	0xbdfe11fc	-0.12405774
130	0xbdf3485f	-0.11879038
131	0xbe0ccbe9	-0.1374966
132	0xbdab4482	-0.08362676
133	0xbdbe34ce	-0.092874154
134	0x3d33b4d7	0.043873634
135	0x3e162e4d	0.146661
136	0x3d4d2a4b	0.05008916
137	0xbd26bfc8	-0.04071024
138	0xbb38e4ae	-0.0028212476
139	0xbe2366f6	-0.15957245
140	0x3c9260e9	0.017868476
141	0x3da3b1b2	0.07992877
142	0x3da569ef	0.08076846
143	0x3bfa38f7	0.0076361853
144	0xbe6f6cb8	-0.23381317
145	0xbd4a6bdd	-0.049419273
146	0x3cb6b03e	0.022300836
147	0x3d4d6c46	0.050152086
148	0xbde5c71c	-0.11219618
149	0xbdc15063	-0.09439161
150	0x3c37e71f	0.011224537
151	0x3d8981f8	0.06714243
152	0xbd83afdf	-0.06430029
153	0xbe56a4ef	-0.20961355
154	0xbe213943	-0.157445
155	0xbdb440fe	-0.08801459
156	0xbe54f963	-0.20798258
157	0xbd5c506e	-0.05378764
158	0x3d91d0a3	0.071198724
159	0xbe4b00a3	-0.19824462
160	0x3cf4375d	0.029811556
161	0x3da8f241	0.08249331
162	0x3e6b424e	0.22974512
163	0x3e413cd3	0.18870859
164	0x3d8d0ac5	0.0688682
165	0xbd539ea1	-0.051664952
166	0xbdece423	-0.11566951
167	0xbd0720b8	-0.032990187
168	0x3d62dabc	0.055384383
169	0xbd452274	-0.04812856
170	0x3dabba2a	0.08385117
171	0x3e3cd493	0.18440466
172	0x3bc9d0a7	0.0061589065
173	0x3dd226c6	0.10261302
174	0x3d0d9761	0.034568194
175	0xbe1a607a	-0.15075865
176	0x3d218765	0.039435763
177	0x3e2674c7	0.16255485
178	0xbc8c1ee5	-0.017104575
179	0xbd263513	-0.04057796
180	0x3dbd0007	0.09228521
181	0x3df84f7b	0.12124535
182	0x3d1bf705	0.038077373
183	0x3c9679fa	0.01836871
184	0xbd8998f5	-0.06718627
185	0xbd3ca532	-0.04605598
186	0x3c88af3a	0.016685117
187	0x3ccd456d	0.025057519
188	0x3e19effe	0.15032956
189	0xbe3e046f	-0.18556379
190	0xbd002bf2	-0.03129191
191	0x3cb03eb7	0.02151428
192	0x3d9f8dc7	0.07790714
193	0x3d229c77	0.039699998
194	0x3cad3bb2	0.021146629
195	0x3d4cdc24	0.05001463
196	0xbbe064b4	-0.0068479422
197	0x3d7d25ea	0.061803736
198	0x3d367a23	0.044550072
199	0xbd8939cd	-0.06700478
200	0x3ded4ccc	0.115869135
201	0xbda108f8	-0.07863039
202	0x3d84769e	0.06467937
203	0x3e1071e3	0.14105944
204	0x3c0f3847	0.008741445
205	0x3c1041f4	0.008804787
206	0xbd850ad7	-0.06496208
207	0x3c20cf9d	0.009815124
208	0x3d5ea169	0.05435315
209	0x3e4c2a59	0.1993803
210	0xbc68d482	-0.014210822
211	0xbcfd4728	-0.030917719
212	0xbd999309	-0.07498748
213	0x3d65438c	0.05597262
214	0x3e0b6614	0.13613158
215	0xbccd6340	-0.02507174
216	0x3eb18027	0.34668085
217	0x3d060d4d	0.03272753
218	0xbe04ee38	-0.12981498
219	0x3e67b944	0.22629267
220	0x3e03e80c	0.12881488
221	0x3da514fd	0.08060644
222	0x3d701ee7	0.05862322
223	0xbe5acfa5	-0.21368273
224	0xbd851212	-0.06497587
225	0x3eb322ee	0.34987587
226	0xbecc5196	-0.39905995
227	0xbe87fe07	-0.26560995
228	0x3ebd2861	0.3694487
229	0xbd4c1f99	-0.04983482
230	0xbd451f16	-0.04812535
231	0x3d1da78a	0.038489856
232	0xbdb4d799	-0.088301845
233	0x3eb68c06	0.35653704
234	0x3de3ba6a	0.1111954
235	0x3db77be9	0.08959181
236	0xbbceb4cb	-0.0063081733
237	0x3e324c1b	0.17411844
238	0x3dd6d3c4	0.1048961
239	0xbdf03aa4	-0.11729935
240	0xbdcec138	-0.10095447
241	0xbd74707f	-0.059677597
242	0xbd9f38d4	-0.07774511
243	0x3d9233e5	0.07138804
244	0x3e7394f4	0.2378729
245	0xbe1d816c	-0.15381402
246	0x3e1c4efc	0.15264505
247	0x3e2b0298	0.16700208
248	0xbe038313	-0.1284297
249	0xbeaced71	-0.33774903
250	0xbe0c2bb5	-0.13688548
251	0xbec3e574	-0.38260996
252	0xbe0450fe	-0.12921521
253	0x3d879371	0.06619919
254	0x3c2ff372	0.010739194
255	0xbdd20d76	-0.10256474

conv_block_1.1.bias f4 [12]
0	0xbe358eca	-0.17730251
1	0xbe1737d9	-0.14767398
2	0xba81c14e	-0.0009899528
3	0x3c4f994a	0.012670824
4	0xbe147083	-0.14496045
5	0x3d97feba	0.07421632
6	0xbda4eb3c	-0.0805268
7	0xbdfd2015	-0.12359635
8	0xbb84fb9a	-0.0040583136
9	0xbcab53bd	-0.020913953
10	0xbdb0c8d9	-0.08632059
11	0xbe37ee4b	-0.17961995

conv_block_2.0.weight f4 [12, 12, 3, 3]
0	0xbbcab273	-0.0061858236
1	0xbe27c901	-0.1638527
2	0x3e10a0dc	0.14123863
3	0x3e08bd66	0.133535
4	0xbdbedf52	-0.09319939
5	0xbde27316	-0.11057107
6	0xbd220f10	-0.039565146
7	0x3baded69	0.0053078425
8	0xbebbd13a	-0.36683065
9	0x3e1490fd	0.14508434
10	0x3d744ba9	0.059642468
11	0x3e0c00a2	0.13672116
12	0x3db907c0	0.09034681
13	0x3df6651c	0.12031004
14	0x3db2cbcd	0.08730278
15	0xbe15e3aa	-0.14637628
16	0x3db411c1	0.08792449
17	0xbd1cb756	-0.03826078
18	0xbd668353	-0.056277584
19	0xbe101612	-0.14070919
20	0x3ce34089	0.027740734
21	0x3c495c39	0.012290054
22	0xbd93ae51	-0.072109826
23	0xbd453bd7	-0.04815277
24	0x3d9aa19d	0.075503565
25	0x3dbd62ca	0.09247358
26	0xbebf054c	-0.3730873
27	0x3de055ba	0.10953851
28	0x3d29bef2	0.041441865
29	0x3d8d754a	0.06907137
30	0x3e3de15e	0.18543002
31	0xbd049803	-0.032371532
32	0xbd04e05f	-0.03244054
33	0xbd80efd6	-0.06295745
34	0xbe0802ab	-0.13282268
35	0xbe6a583f	-0.22885226
36	0x3e0ba986	0.13638887
37	0x3d9d1b12	0.07671179
38	0x3e2f0848	0.17093003
39	0x3d4dfaf6	0.050288163
40	0x3d94ec09	0.07271583
41	0x3db1a433	0.08673897
42	0xbd8c6f56	-0.06857173
43	0xba1c4c58	-0.0005962304
44	0x3db111ea	0.08645995
45	0x3bdefa60	0.0068047494
46	0x3d717f55	0.058959324
47	0xbd755426	-0.059894703
48	0x3d8c1bc3	0.06841233
49	0x3dbf9f8f	0.09356605
50	0x3d5fd22a	0.054643787
51	0xbc6b4eba	-0.014362032
52	0xbd2944b9	-0.041325305
53	0x3ded030e	0.11572848
54	0xbe8f237e	-0.27956766
55	0xbe7ce65a	-0.24697247
56	0xbcc1579b	-0.023601344
57	0xbdde1608	-0.10844046
58	0xbe080c38	-0.13285911
59	0xbd00d85c	-0.031456336
60	0x3e2fea2b	0.17179172
61	0x3e196308	0.14979184
62	0x3e524354	0.20533496
63	0xbe257d85	-0.16161163
64	0x3a5199d6	0.00079956406
65	0xbd0b965c	-0.03407894
66	0x3dce0228	0.10059005
67	0x3ec7187e	0.38885874
68	0x3e3b42ae	0.18287155
69	0xbe65ef93	-0.22454672
70	0xbe07945c	-0.13240188
71	0xbe27333d	-0.1632814
72	0x3d05dfbf	0.032684084
73	0xbd22fd08	-0.03979209
74	0x3dfcff3e	0.12353371
75	0x3e0bafe5	0.13641317
76	0x3c982cdd	0.01857608
77	0x3de9ddb2	0.11419238
78	0xbd0e9dc3	-0.034818422
79	0xbdb2e30d	-0.08734713
80	0xbce81af8	-0.028333172
81	0x3d27162d	0.040792633
82	0xbe217111	-0.15765788
83	0xbd8e383b	-0.06944319
84	0x3ea49165	0.32142177
85	0x3e11f6c6	0.14254293
86	0xbc28630e	-0.010277523
87	0xbdeadeb1	-0.11468256
88	0xbe2d68cf	-0.16934513
89	0xbdb9ae23	-0.09066417
90	0xbdd73126	-0.10507421
91	0xbcf17515	-0.029474774
92	0x3d91aafc	0.07112691
93	0xbb031e5e	-0.0020007114
94	0xbdba23cf	-0.09088861
95	0xbd0d3fc6	-0.034484647
96	0x3e3f058c	0.1865446
97	0x3d44c853	0.048042607
98	0x3d23a2df	0.039950248
99	0xbe3281d9	-0.17432345
100	0xbd96a9dc	-0.07356617
101	0xbcb83191	-0.022484573
102	0xbe467d08	-0.19383633
103	0xbe8b99fd	-0.2726592
104	0xbd4a6d08	-0.049420387
105	0x3e059607	0.13045512
106	0x3c9f1536	0.019419294
107	0xbd6f1932	-0.058373637
108	0x3e509b0e	0.20371649
109	0xbda53253	-0.08066239
110	0xbeb8339e	-0.3597688
111	0xbd636fac	-0.05552642
112	0xbd915a94	-0.070973545
113	0xbe169974	-0.14706975
114	0xbdff9333	-0.12479248
115	0x3e800bb6	0.25008935
116	0xbd3ed17b	-0.046586495
117	0x3dddeffe	0.108367905
118	0x3e3c36a0	0.18380213
119	0xbda4396b	-0.08018764
120	0x3dc07e4b	0.093990885
121	0x3a09e5f8	0.0005260403
122	0xbe26bbbf	-0.16282557
123	0x3e66f4f9	0.22554387
124	0x3d7cf267	0.06175461
125	0x3d45c454	0.048282936
126	0xbdcdf5c3	-0.10056641
127	0xbeb24f3b	-0.34826073
128	0xbe8029d2	-0.25031906
129	0x3e04afa1	0.12957622
130	0x3e8b2f56	0.27184552
131	0xbdc7c585	-0.09754471
132	0x3dec628d	0.115422346
133	0x3ee59b79	0.4484518
134	0x3cd26446	0.02568258
135	0xbc13bd6a	-0.009017328
136	0xbe09002e	-0.13378975
137	0xbcf84397	-0.030305667
138	0x3dbeecdc	0.09322521
139	0x3e22c8d2	0.1589692
140	0x3dbbe27c	0.09174058
141	0x3e0ae785	0.1356488
142	0x3ec57d59	0.38572195
143	0x3e033de7	0.12816583
144	0x3dfa785d	0.12229989
145	0x3ad81033	0.001648432
146	0xbe49bdb2	-0.1970127
147	0xbc039d33	-0.008033085
148	0xbdadb8fa	-0.08482547
149	0xbb298c9f	-0.002587117
150	0xbd1eec49	-0.038799558
151	0x3e00b3ba	0.1256856
152	0x3dd8b47c	0.105813
153	0xbccd0dec	-0.025031053
154	0x3d6dbca4	0.05804123
155	0xbdffc674	-0.12489024
156	0xbdb77f7d	-0.08959863
157	0xbca4a2c2	-0.02009714
158	0xbe14f552	-0.14546707
159	0xbca1a01a	-0.019729663
160	0xbe1b798e	-0.15183088
161	0xbdbb9ead	-0.091611244
162	0xbdbe8e5c	-0.09304497
163	0xbc6ba3c5	-0.014382307
164	0x3d4aadca	0.049482144
165	0x3e5f0fca	0.21783367
166	0x3e5296a5	0.20565279
167	0x3e192b06	0.14957818
168	0x3e2f4fa7	0.17120229
169	0x3e3d548b	0.18489282
170	0x3db223f2	0.08698262
171	0x3dea7eeb	0.11449989
172	0x3c8a193e	0.01685774
173	0xbe4c3441	-0.19941808
174	0x3e920028	0.28515744
175	0xbe230158	-0.15918481
176	0xbe8ef8b9	-0.27924135
177	0x3e5750c4	0.21026903
178	0xbe527a29	-0.20554413
179	0xbd55d8b4	-0.052208617
180	0x3e204770	0.15652251
181	0x3d00714d	0.031358052
182	0xbe394a59	-0.18094768
183	0x3cf1d1b9	0.029518949
184	0xbd436c78	-0.047710866
185	0x3cee447e	0.029085394
186	0x3d949c53	0.07256379
187	0x3e01a5b2	0.12660864
188	0x3e3287cd	0.17434616
189	0x3e4220de	0.1895785
190	0x3de152bb	0.11002108
191	0xbe7c3b84	-0.24632078
192	0xbb7a8049	-0.0038223437
193	0xbc372268	-0.011177637
194	0xbda089c2	-0.07838775
195	0xbdcee30d	-0.101019
196	0x3c11bd87	0.0088952845
197	0xbd3bbecb	-0.04583625
198	0x3d3d30fd	0.046189297
199	0xbd2bd466	-0.041950606
200	0x3c5efc11	0.013609902
201	0x3e1afedd	0.15136285
202	0x3dc135a8	0.09434062
203	0x3dae7fd4	0.08520475
204	0xbdea9bb3	-0.114554785
205	0xbdfd0eb7	-0.12356322
206	0x3c89188f	0.016735343
207	0xbda6ddef	-0.08147799
208	0xbe08fd68	-0.13377917
209	0xbd63c98a	-0.055612125
210	0x3c7920d6	0.015205583
211	0x3e24c16c	0.1608941
212	0xbe26feaa	-0.16308084
213	0xbe2505b7	-0.16115461
214	0x3d5fb654	0.05461724
215	0xbd9ac002	-0.07556154
216	0x3db8e6cf	0.09028398
217	0x3ecfdcdd	0.40598193
218	0xbe31d6c5	-0.17367084
219	0x3d0322d7	0.032015648
220	0x3d31e712	0.043433256
221	0xbdc69605	-0.09696583
222	0xbeda3257	-0.4261653
223	0xbe81c8a7	-0.25348398
224	0x3db67f52	0.08911003
225	0xbcd06669	-0.025439458
226	0x3d8a89f2	0.06764592
227	0xbcff5a63	-0.03117103
228	0x3d162085	0.036652107
229	0x3e12c9aa	0.14334741
230	0xbc448652	-0.011994915
231	0xbe74301f	-0.23846482
232	0xbe19eb8b	-0.15031259
233	0xbe333fda	-0.17504826
234	0x3ebd1fb5	0.36938253
235	0x3ea65df8	0.32493567
236	0xbd51d1e1	-0.051225547
237	0xbe861fe9	-0.2619622
238	0xbec59a80	-0.38594437
239	0x3d7823d6	0.06058105
240	0xbeafca80	-0.34334183
241	0xbeba694e	-0.36408466
242	0x3e3b2486	0.18275651
243	0x3d260fa9	0.04054228
244	0x3d11d681	0.035604957
245	0xbe9a1520	-0.30094242
246	0x3e34ced7	0.17657028
247	0xbc8f76a6	-0.01751263
248	0xbe96f313	-0.29482326
249	0xbea222cf	-0.31667182
250	0xbe500706	-0.20315179
251	0xbdf11fda	-0.11773653
252	0xbd8688c4	-0.06569055
253	0x3e816dff	0.25279233
254	0x3dfec955	0.12440745
255	0x3d8357f6	0.064132616

conv_block_2.0.bias f4 [12]
0	0x3d878f5d	0.06619141
1	0xbe68079c	-0.22659153
2	0xbe480c71	-0.19535996
3	0xbd456209	-0.048189197
4	0xbe37440a	-0.17897049
5	0xbcfa33a9	-0.030542212
6	0x3f137c29	0.5761133
7	0x3e027480	0.12739754
8	0xbe50c24c	-0.20386618
9	0xbd9bfdf8	-0.076168
10	0x3dbd9bfc	0.09258267
11	0xbd5838f6	-0.052788697

conv_block_2.1.weight f4 [12, 12, 3, 3]
0	0xbd82c9ba	-0.063861325
1	0xbcde3b25	-0.027127812
2	0x3ded8d01	0.1159916
3	0x3db10303	0.086431526
4	0xbd463c4e	-0.048397355
5	0xbd382c9b	-0.044964414
6	0x3d1a3f6f	0.03765815
7	0x3dd66af3	0.10469618
8	0xbe1f9e93	-0.15587835
9	0x3d99d325	0.07510976
10	0xbd940522	-0.072275415
11	0x3e58204a	0.21106067
12	0xbd8545a6	-0.06507425
13	0xbd7bd719	-0.06148443
14	0x3e3e7353	0.1859868
15	0xbe17a8dd	-0.1481051
16	0xbd5d9334	-0.054095462
17	0xbdf9ccb8	-0.1219725
18	0x3d9da0ae	0.07696663
19	0x3dca79bd	0.09886501
20	0x3e025094	0.1272605
21	0x3dba0566	0.09083061
22	0x3e52e614	0.2059558
23	0x3c295d77	0.010337225
24	0x3e1ece69	0.15508427
25	0x3e1b7670	0.15181899
26	0x3e836176	0.25660294
27	0x3bb6cdb7	0.0055787223
28	0xbd98f3d3	-0.07468381
29	0xbe0c43f8	-0.13697803
30	0xbd3ef19f	-0.046617147
31	0xbd2a3b88	-0.04156068
32	0xbcb80a32	-0.022465799
33	0x3e14a31c	0.14515346
34	0x3e119ba1	0.14219524
35	0xbd9493ce	-0.07254754
36	0xbde29558	-0.11063641
37	0x3da78760	0.081801176
38	0x3e3a1d66	0.18175277
39	0xbd1d3758	-0.038382858
40	0xbd38112a	-0.044938244
41	0x3e604b88	0.21903813
42	0x3cc8f6fe	0.024531838
43	0xbce4d60f	-0.027934102
44	0x3e4fb653	0.20284395
45	0x3d7b2aef	0.06132024
46	0x3e35ad0d	0.17741795
47	0xbe52ed02	-0.20598224
48	0xbd3b7319	-0.045764063
49	0x3d5317f9	0.051536534
50	0x3dd8c16d	0.10583768
51	0xbeac0517	-0.33597633
52	0x3e88e161	0.2673445
53	0x3e78edaa	0.24309412
54	0xbe0afcee	-0.13573048
55	0x3e1ba409	0.15199293
56	0x3d7e642e	0.062107258
57	0xbeb68635	-0.35649267
58	0xbada85cf	-0.0016671958
59	0xbc4ce9ab	-0.012506883
60	0xbe96becb	-0.29442438
61	0xbd8e6c27	-0.06954222
62	0xbcbd1fbb	-0.02308642
63	0xbe4158f7	-0.18881594
64	0x3db73cce	0.089471444
65	0x3eb13932	0.3461395
66	0xbd63e474	-0.05563779
67	0x3dd0f3a3	0.1020272
68	0x3d285ffb	0.04110716
69	0xbd5bc803	-0.053657543
70	0xbe407098	-0.18792951
71	0xbeac3024	-0.33630478
72	0xbcba2b67	-0.022725774
73	0x3e5773dc	0.2104029
74	0x3dd36d45	0.10323576
75	0xbe2076a5	-0.1567026
76	0x3e3fe705	0.1874047
77	0x3ec96903	0.3933793
78	0x3dba42e5	0.0909479
79	0x3e5aadd6	0.21355376
80	0x3badfb87	0.0053095254
81	0xbe2a8557	-0.16652428
82	0x3dcb9baa	0.099418
83	0x3e66446e	0.22487041
84	0xbda36dd9	-0.07979936
85	0xbe833964	-0.25629723
86	0x3e81ea22	0.25373942
87	0x3dc1876d	0.094496585
88	0xbe9ef023	-0.31042585
89	0x3ec4bfc9	0.3842757
90	0x3e034a09	0.12821211
91	0xbcf8bdd9	-0.030363964
92	0x3e17940e	0.14802572
93	0x3d3ac120	0.045594335
94	0x3d7dd509	0.061970744
95	0x3e505921	0.203465
96	0x3e677a30	0.22605205
97	0x3e52be92	0.2058051
98	0xbd8cdea6	-0.06878404
99	0xbd49b9b9	-0.049249385
100	0xbe215806	-0.15756235
101	0x3d745bcd	0.05965786
102	0xbdc04283	-0.09387686
103	0x3c17ce25	0.009265457
104	0x3dde05d2	0.10840954
105	0xbd4f2611	-0.050573412
106	0xbdc386ce	-0.09547196
107	0xbec43b45	-0.3832647
108	0xbe42c6f5	-0.19021209
109	0xbe48690d	-0.19571324
110	0x3d1adf02	0.037810333
111	0xbd850f82	-0.064970985
112	0xbd4fa304	-0.050692573
113	0xbd4b0332	-0.049563594
114	0xbcbb9bb1	-0.022901388
115	0x3d8d3e12	0.068966046
116	0x3e3b8afc	0.18314737
117	0xbc401afe	-0.011725185
118	0x3dabbc2b	0.083854996
119	0xbd58dd09	-0.05294517
120	0xbd6ecadd	-0.058298934
121	0x3d1af2a0	0.03782904
122	0xbc66fbf1	-0.014098153
123	0x3e82fce2	0.2558356
124	0x3cf0303e	0.029319879
125	0xbd78a387	-0.060702827
126	0xbcdb11d8	-0.026741907
127	0x3b6c26b8	0.003603382
128	0x3e458d48	0.19292176
129	0xbd188f01	-0.037245754
130	0xbd44ee93	-0.048079085
131	0x3e01c5b6	0.12673077
132	0xbc975c1d	-0.01847654
133	0xbdc5df87	-0.09661775
134	0x3de78bcc	0.11305961
135	0xbd15b087	-0.036545303
136	0xbcdfa55c	-0.02730053
137	0xbc63129e	-0.013859419
138	0x3be5f984	0.00701827
139	0xbcb3e0f9	-0.021957861
140	0xbe24cde9	-0.16094173
141	0x3c73d9e3	0.014883491
142	0x3e941024	0.28918564
143	0x3d46af83	0.048507225
144	0xbdc48d6d	-0.09597287
145	0x3d86d6e5	0.06583957
146	0x3e5604cc	0.20900267
147	0xbc76bcd6	-0.01505967
148	0x3d1edf88	0.038787395
149	0x3aa4d986	0.0012577034
150	0x3e4fe501	0.20302202
151	0x3ddf2735	0.1089615
152	0x3be6b5dd	0.0070407228
153	0x3dfc0f92	0.12307657
154	0x3dec62da	0.11542292
155	0xbe2ea5de	-0.17055461
156	0x3df68b53	0.12038293
157	0x3e665c9f	0.2249627
158	0xbd3e5cdb	-0.046475273
159	0x3d9404dd	0.0722749
160	0x3db2220b	0.086978994
161	0x3c85c8c7	0.01633109
162	0xbdcfabb0	-0.10140169
163	0xbc3b6629	-0.011437931
164	0x3cd4eb08	0.025990978
165	0xbdd57337	-0.10422366
166	0xbd3f3892	-0.04668481
167	0xbbd00743	-0.006348522
168	0xbdfd2583	-0.123606704
169	0xbcfd9eaf	-0.030959455
170	0x3d8078d0	0.06273043
171	0xbe28c31e	-0.16480681
172	0x3e182e9b	0.14861529
173	0xbdafb79a	-0.08579941
174	0xbe8d2046	-0.27563685
175	0x3ca7cf7e	0.020484682
176	0xbe7100f9	-0.23535527
177	0xbe717962	-0.2358146
178	0x3e8a62c5	0.2702848
179	0x3f005d26	0.50142133
180	0x3c483ee7	0.012222028
181	0xbe355354	-0.17707568
182	0x3c5fadd8	0.013652287
183	0xbde08246	-0.10962348
184	0xbdf903e9	-0.12158949
185	0x3c62cb3b	0.013842399
186	0xbdc37867	-0.09544449
187	0x3db09187	0.08621507
188	0x3e9866f9	0.29766062
189	0xbdbf5a13	-0.09343352
190	0xbd3ff7b2	-0.04686708
191	0x3e5e6ef4	0.21722013
192	0xbdffda0c	-0.12492761
193	0x3c082587	0.0083097285
194	0x3d22431e	0.03961479
195	0xbb2e0f9f	-0.0026559604
196	0xbdfa0065	-0.122071065
197	0x3e6cd58c	0.23128337
198	0xbdf1f016	-0.11813371
199	0x3dcfceb6	0.10146849
200	0x3dc397b3	0.09550419
201	0xbd1e9f2d	-0.03872602
202	0xb9c4287c	-0.00037414196
203	0x3c912de2	0.017722074
204	0x3e308ed4	0.17241985
205	0xbd499109	-0.049210582
206	0xbc4bb7a3	-0.012433919
207	0xbe0efce6	-0.1396366
208	0xbdc447aa	-0.09583981
209	0x3e30f09c	0.17279285
210	0xbe7ac8fa	-0.24490729
211	0xbe234c6f	-0.15947126
212	0xbc32d093	-0.010913986
213	0xbdaafd5c	-0.08349106
214	0xbd132b0e	-0.035929732
215	0xbe37fe2c	-0.17968053
216	0x3df06e27	0.1173976
217	0x3cbf181b	0.023326924
218	0xbe696eb0	-0.2279613
219	0x3da99c33	0.08281746
220	0x3d0ecd08	0.0348635
221	0xbb9bc4e2	-0.004753695
222	0x3cf62b28	0.030049875
223	0x3d1916f8	0.03737542
224	0x3e1173ec	0.14204377
225	0xbe4677d5	-0.1938165
226	0xbe120da5	-0.14263017
227	0x3e79f4bf	0.2440977
228	0xbe76f65c	-0.24117416
229	0x3e391311	0.1807368
230	0x3c87676a	0.016528804
231	0x3e570429	0.2099768
232	0x3ea73e49	0.32664707
233	0xbe5fc903	-0.21854024
234	0xbe03060c	-0.12795275
235	0x3e88cc01	0.26718143
236	0x3d393b40	0.04522252
237	0x3e80be7a	0.25145322
238	0x3e7a6e9d	0.24456258
239	0x3d4a4acc	0.049387738
240	0x3e96756c	0.2938646
241	0xbef0ef39	-0.47057512
242	0xbe40f791	-0.18844439
243	0x3cf36b4c	0.02971425
244	0xbdae0189	-0.084963866
245	0x3dc30c63	0.09523847
246	0xbcba313c	-0.022728555
247	0x3df2bc80	0.1185236
248	0x3e0ab2cd	0.1354477
249	0xbdb2e891	-0.08735765
250	0x3e3b4fbc	0.18292135
251	0x3e0d40eb	0.13794295
252	0x3d6a258a	0.057164706
253	0xbd9a942a	-0.07547791
254	0x3e7e72d3	0.2484849
255	0xbdcff128	-0.10153419

conv_block_2.1.bias f4 [12]
0	0xbe08e8ea	-0.133701
1	0xbeb4eea1	-0.3533831
2	0xbf021f0f	-0.5082864
3	0xbef5bdb2	-0.4799629
4	0xbeddddc5	-0.4333326
5	0xbe43a350	-0.19105268
6	0xbf383636	-0.7195772
7	0xbf32791e	-0.6971606
8	0xbe5b37cd	-0.21408005
9	0xbf1c8152	-0.6113483
10	0xbebc1a24	-0.36738694
11	0xbec17fd4	-0.37792838

classifier.1.weight f4 [24, 588]
0	0x3e4380a5	0.19092043
1	0xbecaed63	-0.39634237
2	0xbe2eab8d	-0.17057629
3	0xbec7814c	-0.38965833
4	0xbc9ca1c9	-0.019120114
5	0x3cf35570	0.029703826
6	0xbf01dab4	-0.5072434
7	0x3e918c88	0.2842753
8	0x3eadf40f	0.33975264
9	0x3e124cbc	0.14287084
10	0xbefaec3d	-0.4900836
11	0xbe82dcf4	-0.255592
12	0xbd95814d	-0.07300053
13	0xbf3ca1b4	-0.7368424
14	0x3e46821d	0.19385572
15	0x3e9280e1	0.28613952
16	0xbe3dc94e	-0.18533823
17	0xbdaa5a63	-0.08318021
18	0x3e625983	0.22104459
19	0x3ec986e7	0.39360735
20	0xbf3ce3e1	-0.73785216
21	0x3ea465c8	0.32108903
22	0xbeee99e8	-0.46601796
23	0xbe4d7a1f	-0.20066117
24	0xbd4101a3	-0.0471207
25	0xbed26291	-0.41090825
26	0x3f3b092c	0.7306087
27	0xbf141caa	-0.5785624
28	0x3e963a0e	0.29341167
29	0xbe72f0e6	-0.23724708
30	0xbe6fdeaf	-0.23424791
31	0xbeac73c8	-0.33682084
32	0x3e31a909	0.17349638
33	0x3f10fb08	0.56633043
34	0x3d8e81bc	0.069583386
35	0x3e5fef07	0.21868525
36	0xbe575e3c	-0.21032041
37	0xbe1e7266	-0.15473327
38	0x3e002979	0.1251582
39	0xbe4e4ec3	-0.20147233
40	0x3e1b05ca	0.15138927
41	0xbe415908	-0.18881619
42	0x3ed225eb	0.41044554
43	0x3d5de0eb	0.054169577
44	0xbd43c826	-0.0477983
45	0xbd784de7	-0.06062117
46	0xbd934d6d	-0.07192502
47	0xbe678f73	-0.22613315
48	0x3d8ac81f	0.06776451
49	0xbd090423	-0.03345121
50	0x3ec2dd94	0.38059676
51	0x3ed61a9a	0.4181717
52	0xbc2e48ec	-0.010637503
53	0x3e8ed98e	0.27900356
54	0x3e1dfaee	0.15427753
55	0x3eadac98	0.3392074
56	0x3e06fc71	0.13182236
57	0x3e57b199	0.21063842
58	0x3ecc674f	0.39922568
59	0xbe923c07	-0.28561422
60	0xbe531c9a	-0.2061638
61	0x3e5e4735	0.21706851
62	0x3efa68ea	0.48908168
63	0x3eb9476c	0.36187303
64	0xbece577e	-0.40301126
65	0x3e5f2944	0.21793085
66	0xbf1317a3	-0.5745794
67	0xbf9b16c4	-1.2116323
68	0xbf1eefd0	-0.62084675
69	0x3f02370d	0.5086525
70	0x3dbdd95f	0.09269976
71	0xbd84214a	-0.06451662
72	0x3f50b8d6	0.8153204
73	0x3dac1144	0.08401731
74	0xbf50a42d	-0.8150051
75	0xbdf66ff2	-0.120330706
76	0x3f5b47ce	0.8565644
77	0xb948989d	-0.00019130339
78	0xbd88df11	-0.066831715
79	0x3f15bae6	0.5848831
80	0x3e2e4019	0.17016639
81	0xbdcfc1d1	-0.101443894
82	0x3d92431f	0.071417086
83	0x3e28aac9	0.164714
84	0x3c655591	0.013997451
85	0x3df6ec6c	0.12056813
86	0xbd897e8b	-0.06713589
87	0xbe085ddc	-0.13317055
88	0x3c9e9f70	0.019363135
89	0xbdce2707	-0.100660376
90	0x3dcf402f	0.10119664
91	0xbe769599	-0.24080504
92	0xbde0514b	-0.109530054
93	0xbe8646bf	-0.2622585
94	0xbeb9b3f0	-0.36270094
95	0xbc27b0cb	-0.010235022
96	0xbe04bfe9	-0.12963833
97	0xbe3e8fd2	-0.1860955
98	0x3e699130	0.22809291
99	0xbd4eb03a	-0.05046103
100	0x3ef39424	0.4757396
101	0xbe474f2e	-0.19463798
102	0x3d781cea	0.06057445
103	0x3e5497d3	0.20761041
104	0xbdee0b83	-0.116232894
105	0x3e96c7db	0.29449353
106	0x3ee5f0bf	0.44910237
107	0x3f2f3112	0.6843425
108	0xbdb2d467	-0.08731919
109	0xbdf7f3e5	-0.12107066
110	0x3ed3fcea	0.41403896
111	0x3eade3ac	0.33962762
112	0x3efccffa	0.49377424
113	0x3dd45b6e	0.10369001
114	0xbf54f159	-0.8318077
115	0xbd6e67f4	-0.058204606
116	0xbee23ff1	-0.44189408
117	0x3e149fac	0.14514035
118	0xbdacebb5	-0.08443395
119	0xbc0699e6	-0.008215403
120	0x3ee59f1e	0.4484796
121	0xbf394e38	-0.7238498
122	0xbe4f1be9	-0.2022549
123	0xbee65f0f	-0.449944
124	0x3eb53513	0.35392055
125	0xbec9d577	-0.39420673
126	0x3da8eca7	0.08248263
127	0xbdfc74b5	-0.123269476
128	0xbebcd3e4	-0.3688041
129	0x3e12d107	0.1433755
130	0xbe001a4e	-0.12510034
131	0xbea77bc8	-0.32711625
132	0x3f0a372a	0.53990424
133	0xbccce7a6	-0.025012802
134	0x3ce1fb4a	0.027585644
135	0xbf16d438	-0.5891757
136	0x3ecd4a20	0.40095615
137	0x3de38af8	0.111104906
138	0xbeb22c49	-0.34799412
139	0xbb2be73d	-0.0026230358
140	0xbee2e4a6	-0.4431507
141	0x3e4bbc0f	0.19895957
142	0x3d87a2a1	0.06622816
143	0x3e684c88	0.22685444
144	0xbf247014	-0.6423352
145	0xbd8578fb	-0.06517216
146	0x3e94ca7d	0.29060736
147	0x3bf2668b	0.007397478
148	0x3e09380f	0.13400291
149	0xbf0534ab	-0.5203349
150	0xbe5e389b	-0.21701281
151	0xbe864286	-0.26222628
152	0xbe9fc3e6	-0.31204146
153	0xbf374cf5	-0.716018
154	0xbe34f142	-0.17670158
155	0xba0ee655	-0.0005451192
156	0x3cc7a8f0	0.024372548
157	0xbe10e760	-0.14150763
158	0xbb95cd57	-0.0045715976
159	0xbe41d015	-0.18927033
160	0xbf077f08	-0.5292821
161	0x3d8102c4	0.062993556
162	0xbeb4b12b	-0.35291418
163	0x3ec5cabe	0.38631243
164	0xbe8927ba	-0.2678812
165	0x3d85acbf	0.06527089
166	0x3e9cb9bd	0.30610457
167	0xbe286779	-0.16445722
168	0x3ebfe32d	0.3747801
169	0xbf53dfac	-0.8276317
170	0x3e9efe18	0.31053233
171	0xbd3abf6f	-0.04559272
172	0x3ca34407	0.019929899
173	0x3f6067d2	0.8765842
174	0x3f39ba70	0.72550106
175	0x3e0d32a5	0.1378885
176	0xbd47ad7b	-0.04874943
177	0xbe544cd0	-0.20732427
178	0xbebc480c	-0.36773717
179	0xbefe864c	-0.49711835
180	0x3dfb89c4	0.12282136
181	0xbdeb4460	-0.11487651
182	0xbe877778	-0.26458335
183	0x3e1aa5a7	0.15102254
184	0xbde90b7a	-0.11379142
185	0xbebb69e6	-0.36604232
186	0x3d54eb25	0.051982064
187	0x3c430111	0.01190211
188	0x3d307374	0.043078855
189	0x3c8a2ab3	0.016866064
190	0x3eda1e2c	0.42601144
191	0x3e378276	0.1792086
192	0x3da3438d	0.07971869
193	0x3e288f59	0.16460933
194	0xbe868748	-0.26275086
195	0xbea6e958	-0.32599902
196	0x3f11aca7	0.5690407
197	0x3d4ead68	0.05045834
198	0xbe3c61c5	-0.18396671
199	0xbe31e6fb	-0.17373268
200	0x3e0f79aa	0.14011255
201	0x3e135c3a	0.1439065
202	0xbe0f1f44	-0.1397677
203	0x3eaaef08	0.3338549
204	0x3c1e464d	0.009660316
205	0x3f094f87	0.53636974
206	0x3c5acb5d	0.01335415
207	0xbe8ced1b	-0.27524647
208	0xbe3a0c04	-0.18168646
209	0xbea00dea	-0.31260616
210	0x3e27807d	0.16357608
211	0xbea22dfa	-0.31675702
212	0x3e6e45c5	0.23268802
213	0xbe5b3ef9	-0.21410741
214	0x3ac21e21	0.0014810005
215	0x3eb1c45f	0.34720132
216	0xbcf3167b	-0.029673805
217	0xbc95b14d	-0.01827302
218	0xbe98dba3	-0.2985507
219	0xbe489fad	-0.19592161
220	0xbe477c41	-0.19480993
221	0x3dcd8219	0.1003458
222	0xbd1bb796	-0.038016878
223	0xbee81bf1	-0.45333818
224	0x3d8f4aa2	0.06996657
225	0x3e8858f5	0.2663037
226	0xbe051836	-0.12997517
227	0xbf0545bd	-0.5205954
228	0xbeb91a64	-0.36152947
229	0x3c38a449	0.011269637
230	0xbeab0b52	-0.33407074
231	0xbd2d6f22	-0.042342313
232	0xbd0a571d	-0.033774484
233	0xbdc77201	-0.097385414
234	0xbe5b83dd	-0.2143702
235	0x3e4d6115	0.20056565
236	0x3d4392f7	0.04774758
237	0xbe647018	-0.22308385
238	0x3ed188bf	0.4092464
239	0xbe923c35	-0.2856156
240	0x3db849ed	0.08998475
241	0x3e10916a	0.14117971
242	0xbe7c59a1	-0.24643566
243	0xbe81ea7e	-0.25374216
244	0xbed38e24	-0.41319382
245	0x3ec8a2f2	0.39186817
246	0x3e058b3f	0.130414
247	0xbe9321a2	-0.28736597
248	0xbe057fb1	-0.13036992
249	0x3cfe6606	0.031054508
250	0xbd81de98	-0.063412845
251	0xbd3ebb18	-0.046565145
252	0x3e3f8ed7	0.18706833
253	0x3f0bfdb9	0.54684025
254	0xbdd2190e	-0.10258685
255	0xbd0ba624	-0.03409399

classifier.1.bias f4 [24]
0	0xbe8599b5	-0.26093832
1	0xbe412dde	-0.18865153
2	0xbed630d2	-0.41834122
3	0xbe66c6b1	-0.22536732
4	0xbe91810e	-0.28418773
5	0x3e607934	0.21921235
6	0x3dc38e95	0.0954868
7	0x3e6f0baf	0.233443
8	0x3de1c9f6	0.11024849
9	0x3c51dad2	0.0128085185
10	0x3df0155b	0.11722823
11	0xbe0e02f9	-0.13868321
12	0xbe509b20	-0.20371675
13	0xbde609a3	-0.11232307
14	0x3e4d97de	0.20077464
15	0xbd8883f1	-0.06665791
16	0x3c8a9bc8	0.016919985
17	0x3c572bd3	0.013133007
18	0x3e7fa2c2	0.24964431
19	0xbbc97bce	-0.006148792
20	0x3d925f83	0.07147124
21	0x3eaac405	0.33352676
22	0x3e9642d6	0.29347867
23	0xbe00bf58	-0.12572992
