Projects/best_model5.pth (torch, 30576 bytes, 10 tensors)

conv_block_1.0.weight f4 [5, 1, 3, 3]
0.45926434 -0.35422587 0.04931677 -0.1320096 0.054498754 0.0446482 0.019747103 -0.047473054
0.04409625 -0.2115122 -0.39294183 0.3545939 -0.35895455 -0.0075866682 -0.03724817 0.09418952
-0.053715892 -0.1547931 -0.092070036 -0.06447518 0.16720846 0.021323964 0.15792976 -0.23122537
-0.20258813 0.23799245 0.004335142 -0.41171715 0.039222542 -0.24387908 0.10676943 0.28853875
0.22200198 -0.17138489 0.42013717 0.020101141 0.07001097 0.13892744 0.006626292 -0.22897913
0.24889173 -0.020301044 -0.07792495 -0.2714342 -0.054715987
00000000: b224 eb3e 185d b5be 6200 4a3d 862d 07be
00000010: 163a 5f3d 08e1 363d adc4 a13c 1b73 42bd
00000020: 459e 343d a796 58be ac2f c9be 558d b53e
00000030: e4c8 b7be 9699 f8bb 8991 18bd 6fe6 c03d
00000040: 3205 5cbd 1582 1ebe 378f bcbd 900b 84bd
00000050: b238 2b3e 98af ae3c 57b8 213e 58c6 6cbe
00000060: 4373 4fbe 4bb4 733e cf0d 8e3b 97cc d2be
00000070: d1a7 203d 70bb 79be eea9 da3d 5abb 933e
00000080: 7d54 633e 857f 2fbe 381c d73e 26ab a43c
00000090: e961 8f3d ff42 0e3e 5e21 d93b 8179 6abe
000000a0: 79dd 7e3e 604e a6bc 1e97 9fbd 6cf9 8abe
000000b0: df1d 60bd

conv_block_1.0.bias f4 [5]
0.013640924 0.430947 0.035259224 -0.2549283 -0.05993589
00000000: 2f7e 5f3c 16a5 dc3e fa6b 103d f685 82be
00000010: 567f 75bd

conv_block_1.1.weight f4 [5, 5, 3, 3]
-0.28205347 0.57972014 -0.27587795 -0.399719 0.2806425 0.03577958 -0.060845133 0.1503632
-0.011246258 -0.10654891 0.7022841 0.72912145 -0.3863629 0.05624517 -0.089999616 -0.7480422
0.14315556 -0.12189099 0.07893385 -0.15194185 0.022009617 0.048449203 -0.16804294 -0.058442082
0.14988747 0.006173168 0.103245765 0.17382348 -0.3735736 -0.64083385 0.4298744 -0.39515913
-0.21070665 0.7196949 -0.13486627 0.11766084 0.15701452 -0.26164567 -0.1907299 -0.11414627
0.23932396 -0.024881614 -0.083047785 0.11870541 -0.09704041 -0.36603954 0.26636243 0.04046941
-0.1463544 -0.11097024 0.025626408 0.085225314 -0.022735609 0.095083535 0.06052259 -0.7614669
-0.17880115 0.6720107 0.17803195 -0.21048512 -0.13283901 0.1840241 0.035797402 0.29695275
0.15385883 -0.23844689 -0.050738543 0.0039703944 0.0022334515 -0.4346836 -0.090346545 0.13788211
-0.47158152 0.2862202 0.4990089 -0.38705 0.033862125 0.24455076 -0.17815879 -0.065776266
0.09252836 0.6159987 0.00058892305 -0.7833315 -0.24618624 0.39783427 0.24558564 -0.48649788
0.33838856 0.29489648 -0.16720243 0.13544996 -0.0019395592 0.18747821 -0.13923568 0.3571156
0.2251609 -0.22377689 -0.012680831 -0.6070428 -0.1374667 0.5564864 -0.56980973 -0.07384397
0.43802983 0.20197198 0.28848976 -0.4031781 -0.050987087 0.12102699 -0.06382073 0.06480263
-0.13410205 0.10790966 0.023735832 0.030490493 -0.1409466 -0.37153447 -0.45274442 -0.2691494
-0.16739017 -0.0489557 0.13377415 0.21079132 0.2814304 0.5951103 0.2867423 0.31207246
0.10355448 -0.10578399 0.04415016 -0.14326654 -0.2769235 -0.2101549 -0.22165956 0.2890128
0.30586994 -0.56281537 0.11198413 0.15712142 -0.13487601 -0.015377919 -0.08362548 -0.3392477
-0.0037297497 0.8523726 0.6023397 -0.2575597 -0.094192095 -0.114245534 -0.45802525 -0.3137146
-0.24048835 -0.2961667 -0.17392586 0.4045449 -0.08535173 0.088494115 0.008643088 -0.3734953
-0.066511214 0.35852024 -0.76543677 -0.2689048 0.26782408 -0.18084209 0.028902171 0.4099326
0.0637273 0.15235959 0.36284646 0.09010534 -0.2867354 0.15364456 0.045839943 0.26809412
0.34121633 -0.25324962 0.0115758255 0.008944752 0.6026913 -0.40407452 -0.14065452 -0.2966544
-0.03670784 0.2591127 -0.01682007 0.025739085 0.030736104 0.92014635 0.7392142 0.2537021
0.07922826 -0.5366976 -0.6546997 -0.340762 -0.41730917 0.054644324 -0.04651503 0.15209846
0.33185104 0.15884687 -0.060283918 -0.2000347 -0.14833361 0.15226793 -0.37456176 -0.80964917
0.15044264 -0.3309084 0.23013294 0.5563352 0.13956141 0.1607199 0.26979434 -0.50333756
-0.37014532 -0.356943 0.037156526 0.07615164 0.37987435 0.04020046 -0.26519877 0.26464272
0.2993364
00000000: 5069 90be 8a68 143f e03f 8dbe f8a7 ccbe
00000010: 60b0 8f3e 9c8d 123d bf38 79bd d0f8 193e
00000020: 3a42 38bc 5136 dabd e4c8 333f b4a7 3a3f
00000030: 5cd1 c5be 5661 663d b851 b8bd b27f 3fbf
00000040: 5f97 123e fca1 f9bd 12a8 a13d a596 1bbe
00000050: 834d b43c ac72 463d 7313 2cbe f760 6fbd
00000060: 1a7c 193e 4948 ca3b 8472 d33d c8fe 313e
00000070: 0a45 bfbe b00d 24bf 7f18 dc3e 4c52 cabe
00000080: 7cc3 57be ed3d 383f 621a 0abe 2bf8 f03d
00000090: 6ac8 203e 6cf6 85be b34e 43be 85c5 e9bd
000000a0: 5711 753e 87d4 cbbc f514 aabd d21b f33d
000000b0: 1fbd c6bd 8969 bbbe a860 883e 41c3 253d
000000c0: eedd 15be 5d44 e3bd 79ee d13c 9c8a ae3d
000000d0: 0740 babc 28bb c23d 89e6 773d 7fef 42bf
000000e0: a617 37be e508 2c3f 024e 363e 6989 57be
000000f0: f306 08be d070 3c3e 4ca0 123d 310a 983e
00000100: 2b8d 1d3e 6c2b 74be 38d3 4fbd 151a 823b
00000110: 195f 123b d98e debe 9c07 b9bd f830 0d3e
00000120: 2273 f1be 748b 923e 187e ff3e 6b2b c6be
00000130: 03b3 0a3d 846b 7a3e 426f 36be b5b5 86bd
00000140: 827f bd3d 17b2 1d3f f561 1a3a 6a88 48bf
00000150: 3f18 7cbe efb0 cb3e cd7a 7b3e 4016 f9be
00000160: 4441 ad3e acfc 963e 1d37 2bbe 65b3 0a3e
00000170: cf38 feba 4afa 3f3e cc93 0ebe dbd7 b63e
00000180: 9490 663e c525 65be 43c3 4fbc 2867 1bbf
00000190: 12c4 0cbe e575 0e3f 0ddf 11bf 823b 97bd
000001a0: 7245 e03e bed1 4e3e eeb4 933e 5c6d cebe
000001b0: d6d7 50bd 00dd f73d 71b4 82bd 3eb7 843d
000001c0: 0c52 09be bdff dc3d a671 c23c 33c7 f93c
000001d0: 4e54 10be c439 bebe 1ece e7be f3cd 89be
000001e0: 5468 2bbe c685 48bd 17fc 083e aed9 573e
000001f0: a517 903e 2659 183f e3cf 923e f6c7 9f3e
00000200: 5f14 d43d 47a5 d8bd ccd6 343d 77b4 12be
00000210: ebc8 8dbe d932 57be b9fa 62be 7cf9 933e
00000220: fc9a 9c3e ab14 10bf f057 e53d 70e4 203e
00000230: f01c 0abe abf3 7bbc d643 abbd e0b1 adbe
00000240: d16e 74bb 1735 5a3f ef32 1a3f ddde 83be
00000250: c9e7 c0bd 90f9 e9bd 4982 eabe 339f a0be
00000260: 9442 76be 29a3 97be 9f19 32be 8220 cf3e
00000270: e3cc aebd 673c b53d bd9b 0d3c c73a bfbe
00000280: 0837 88bd f78f b73e aaf3 43bf e4ad 89be
00000290: 3d20 893e ab2e 39be 3fc4 ec3c b0e2 d13e
000002a0: 7583 823d 2704 1c3e 03c7 b93e 2689 b83d
000002b0: fbce 92be 0055 1d3e aac2 3b3d a243 893e
000002c0: e8b3 ae3e efa9 81be 88a8 3d3c 028d 123c
000002d0: fa49 1a3f dbe2 cebe bd07 10be 16e3 97be
000002e0: f65a 16bd 6baa 843e 3eca 89bc c6da d23c
000002f0: 48ca fb3c b68e 6b3f 243d 3d3f 3ee5 813e
00000300: 6d42 a23d 0465 09bf 669a 27bf 5b78 aebe
00000310: 8ca9 d5be bad2 5f3d 8b86 3ebd b3bf 1b3e
00000320: 61e8 a93e c1a8 223e 45ec 76bd e5d5 4cbe
00000330: c4e4 17be 20ec 1b3e 8fc6 bfbe 2b45 4fbf
00000340: a30d 1a3e d36c a9be f8a7 6b3e fc6b 0e3f
00000350: 30e9 0e3e c293 243e 7c22 8a3e bbda 00bf
00000360: b083 bdbe 3cc1 b6be 7131 183d 64f5 9b3d
00000370: e47e c23e 3da9 243d 22c8 87be 407f 873e
00000380: 9f42 993e

conv_block_1.1.bias f4 [5]
-0.034121446 -0.032082662 -0.032246724 -0.057321638 -0.06603197
00000000: eec2 0bbd 1c69 03bd 2415 04bd 18ca 6abd
00000010: c53b 87bd

conv_block_2.0.weight f4 [5, 5, 3, 3]
0.073608465 -0.1638319 -0.05054698 0.2746794 0.25313926 -0.2473129 0.0022845394 0.24205278
-0.064169884 -0.08122724 0.37550682 0.014834869 -0.46865398 -0.39303777 0.15540503 0.077690706
-0.2276675 0.33869606 -0.26439983 0.053555544 0.07921221 0.06605904 0.13204332 0.028554227
0.005826167 0.028106349 -0.123153105 -0.32264316 0.03226257 0.10826211 -0.15872987 0.35607564
0.08520328 0.21608725 0.11247085 0.23831382 0.03132532 -0.2510893 0.13996638 -0.19393633
-0.04568062 0.23331529 0.058125302 0.4332971 0.5577359 0.24430041 0.08606944 0.010693474
-0.14066893 -0.028910834 0.20836368 -0.066239156 -0.27270582 0.34756717 -0.11645952 -0.15098597
-0.016536625 0.14232446 0.10946615 0.11688022 0.44544306 -0.10128333 -0.39990148 -0.005714431
0.06042806 0.027694456 0.018089492 0.298882 0.122077614 -0.1382153 0.011703395 0.18076092
0.32440028 0.15488183 0.02411161 -0.16683125 -0.00521573 0.029448071 -0.21695945 -0.33678854
0.4018217 0.304392 -0.066108026 0.07924368 0.117711805 0.10938743 0.19395791 0.16375363
-0.09007197 0.051071808 -0.36720985 -0.16200542 0.25704834 0.06283931 -0.15743253 -0.08207911
-0.09892138 -0.019234147 0.09200871 0.16295049 -0.020853596 0.22250098 -0.036060516 0.009443094
0.20736828 -0.081269614 -0.10720503 0.21556877 0.058288578 -0.079993464 -0.073842 0.06597088
-0.12395521 -0.17870331 -0.175649 -0.13057423 0.19325143 0.064617075 -0.1609371 0.03447354
0.23044766 -0.042178985 -0.03872819 -0.10345591 -0.011855484 0.22504103 -0.105949655 0.13997321
-0.121447854 0.04696775 0.41575307 0.24727659 0.355853 0.21406414 -0.019339584 0.39217955
-0.103880614 0.14369638 0.0883155 0.05907775 0.4176703 -0.17559619 -0.09514444 -0.014238418
0.056255978 0.5786074 -0.15418041 0.04635946 0.20888726 -0.111402966 0.057326317 -0.30246773
-0.1471292 0.024363784 0.21576777 -0.120953396 0.5031043 -0.22809957 0.045569673 -0.4024958
-0.32482365 -0.084587336 0.089694805 0.30901143 -0.0093478 0.19648099 0.22203383 -0.0038004383
0.14434552 0.063856475 0.02361322 -0.17833173 0.019758517 0.22274077 -0.09301716 -0.078235
-0.051363092 0.23670414 -0.08200882 -0.0066582365 -0.18065007 -0.16568655 -0.044567365 -0.12319609
0.042341493 -0.01883315 -0.0674578 0.070010595 -0.10866623 -0.21327898 -0.123485714 0.00760275
-0.23302558 -0.038173024 -0.14453962 0.10500863 -0.02045349 0.16637619 0.19355227 0.13412254
-0.1363111 0.13228336 -0.03118434 0.026655965 0.12704386 0.08306931 0.15371864 0.14509954
-0.09282477 0.016899465 0.18604234 0.066739924 -0.039117813 -0.004942263 0.17613535 -0.06841199
0.17823696 -0.061209515 -0.07623203 0.0844232 -0.16546226 -0.119144976 0.00937523 0.049744867
0.09246557
00000000: 09c0 963d 8dc3 27be 5a0a 4fbd c7a2 8c3e
00000010: 789b 813e 983f 7dbe 36b8 153b afdc 773e
00000020: 806b 83bd 785a a6bd 6e42 c03e f30d 733c
00000030: 6af3 efbe 3f3c c9be 7f22 1f3e 4e1c 9f3d
00000040: ab21 69be 9269 ad3e 6a5f 87be 0f5d 5b3d
00000050: 033a a23d f649 873d 5d36 073e 8eea e93c
00000060: 6ee9 be3b 493f e63c b237 fcbd 7c31 a5be
00000070: c225 043d 86b8 dd3d 158a 22be 8c4f b63e
00000080: 0f7f ae3d fa45 5d3e 1e57 e63d 8a08 743e
00000090: fb4e 003d c78e 80be 5953 0f3e 3f97 46be
000000a0: 9a1b 3bbd 34ea 6e3e cc14 6e3d 1ed9 dd3e
000000b0: c8c7 0e3f e329 7a3e 2d45 b03d ae33 2f3c
000000c0: 840b 10be 6ad6 ecbc 4a5d 553e 65a8 87bd
000000d0: 19a0 8bbe 53f4 b13e 5482 eebd 119c 1abe
000000e0: d177 87bc 81bd 113e ca2f e03d e65e ef3d
000000f0: 1d11 e43e a26d cfbd e3bf ccbe 1f40 bbbb
00000100: 6a83 773d 7cdf e23c 6a30 943c 1007 993e
00000110: d403 fa3d 5088 0dbe 99bf 3f3c 6419 393e
00000120: cb17 a63e 5899 1e3e b685 c53c d0d5 2abe
00000130: b7e8 aabb 153d f13c 9e2a 5ebe 8c6f acbe
00000140: 93bb cd3e 45d9 9b3e a563 87bd 834a a23d
00000150: e312 f13d 8406 e03d e79c 463e 08af 273e
00000160: a777 b8bd ac30 513d ee02 bcbe c0e4 25be
00000170: d79b 833e e5b1 803d fe35 21be 1819 a8bd
00000180: 4b97 cabd ee90 9dbc 106f bc3d 7edc 263e
00000190: 29d5 aabc 4cd7 633e 31b4 13bd 35b7 1a3c
000001a0: 5a58 543e af70 a6bd 508e dbbd 0fbe 5c3e
000001b0: 01c0 6e3d 9dd3 a3bd 793a 97bd be1b 873d
000001c0: 3bdc fdbd 00fe 36be 55dd 33be 40b5 05be
000001d0: b4e3 453e f555 843d b2cc 24be 2034 0d3d
000001e0: 79fa 6b3e dfc3 2cbd 73a1 1ebd b1e0 d3bd
000001f0: 813d 42bc 2871 663e 22fc d8bd 2355 0f3e
00000200: a7b9 f8bd 4161 403d 96dd d43e 1336 7d3e
00000210: 5d32 b63e a133 5b3e 0c6e 9ebc c2cb c83e
00000220: 5cbf d4bd 2525 133e c2de b43d 83fb 713d
00000230: e2d8 d53e 7dcf 33be 17db c2bd 4148 69bc
00000240: ab6c 663d 9d1f 143f 78e1 1dbe 6be3 3d3d
00000250: 8be6 553e 3d27 e4bd 00cf 6a3d 0ddd 9abe
00000260: 09a9 16be 8f96 c73c 3af2 5c3e 6ab6 f7bd
00000270: 72cb 003f ef92 69be 44a7 3a3d ee13 cebe
00000280: 494f a6be 203c adbd e9b1 b73d bf36 9e3e
00000290: 8427 19bc 5032 493e d65c 633e c610 79bb
000002a0: 50cf 133e 2fc7 823d 8370 c13c 989c 36be
000002b0: 9ddc a13c 2816 643e c87f bebd ac39 a0bd
000002c0: 1b62 52bd 9262 723e 3df4 a7bd 562d dabb
000002d0: 55fc 38be bca9 29be 458c 36bd 3b4e fcbd
000002e0: 466e 2d3d fa47 9abc 5127 8abd b761 8f3d
000002f0: 678c debd ce65 5abe 14e6 fcbd 7d20 f93b
00000300: 429e 6ebe 515b 1cbd 3202 14be c40e d73d
00000310: 148e a7bc 855e 2a3e 9132 463e 6b57 093e
00000320: 2395 0bbe 4a75 073e 4d76 ffbc 9c5d da3c
00000330: c917 023e 3e20 aa3d 6b68 1d3e f994 143e
00000340: ea1a bebd bf70 8a3c e281 3e3e f1ae 883d
00000350: 003a 20bd b5f2 a1bb d35c 343e 961b 8cbd
00000360: c083 363e d4b6 7abd 8a1f 9cbd 12e6 ac3d
00000370: f06e 29be 4802 f4bd 919a 193c 46c1 4b3d
00000380: 975e bd3d

conv_block_2.0.bias f4 [5]
0.07607663 -0.022970924 -0.03600297 0.074359216 0.0017188459
00000000: 10ce 9b3d 852d bcbc da77 13bd a549 983d
00000010: e64a e13a

conv_block_2.1.weight f4 [5, 5, 3, 3]
-0.27560976 -0.5617978 0.088866405 0.49044478 -0.24371246 -0.20444663 0.10462336 0.34661177
-0.08419345 -0.41713876 0.21082099 0.0038884957 -0.25256938 -0.23610786 -0.0487026 0.21684115
-0.67435753 0.25367787 -0.09693223 -0.07035583 0.25001636 0.19166987 0.10492546 -0.07807865
-0.049300827 -0.21372837 0.20349514 -0.24189647 -0.10144523 -0.20047499 0.040602293 -0.18528132
-0.14707693 0.0685859 0.2220501 -0.3489045 -0.15044507 0.14513469 0.20376988 0.017802453
-0.14462157 0.081249714 -0.12329301 0.10034017 -0.26424548 -0.21826199 0.30303177 -0.2333577
-0.36574435 0.45019376 -0.3765705 -0.4629539 0.2925386 -0.2141728 0.12514845 -0.031514253
-0.17883633 0.20277523 -0.014363789 0.06165415 -0.1657993 0.064948425 0.05193906 0.3131877
0.077433154 -0.22123976 0.18095674 -0.10836646 -0.23745227 0.03267309 -0.2214558 -0.016685244
0.0020131192 -0.3992768 0.38411322 0.11041258 -0.16722359 0.12310735 -0.05046826 0.11830911
0.16762029 -0.05427745 -0.04035796 0.12505919 -0.06847493 0.0074068354 -0.011139134 0.105822444
-0.090212055 0.06494359 -0.26414052 -0.35648 0.17859098 -0.46002117 -0.2083799 0.0044779
0.10827502 0.057160385 0.17540532 -0.18958433 0.00029394813 -0.08318713 0.17438316 -0.12059463
-0.17463116 0.12325593 -0.15149355 -0.0017765193 0.19812723 0.150967 -0.2515048 0.10753179
-0.35154024 -0.14253242 -0.40562114 -0.08928716 0.05148427 0.14555676 -0.17343561 -0.2736089
-0.046812017 -0.4568134 -0.040339 -0.5966824 0.059947357 -0.049067814 0.065132044 0.11335433
-0.20790154 0.00045315843 0.1340437 0.037596926 -0.08146155 -0.1062506 0.22780387 -0.31957343
-0.08256108 -0.10379003 0.0996501 0.51633406 0.24543025 0.3523371 -0.074261196 -0.15388039
-0.21263096 0.031802718 -0.11733674 0.16806541 0.122850716 0.11029201 0.069022246 0.3075347
0.17709252 0.43929583 -0.02741536 -0.024391316 0.025865208 -0.18881606 0.027338278 -0.26501086
0.42061108 0.037949238 -0.07830104 -0.46136668 -0.2689554 -0.39922422 0.11476551 0.16508716
-0.114567965 0.50035053 0.22052611 0.0689355 -0.08008453 -0.039440542 0.05684667 -0.05230078
0.049780477 -0.16761895 -0.1737088 0.009132398 -0.33109796 0.072945066 0.22611454 -0.16236682
-0.7732653 0.20634237 0.06514993 -0.24821237 -0.21053866 0.26433542 0.423486 -0.21386369
-0.36539897 0.36119574 0.06454396 -0.48394015 -0.28228992 0.4002422 -0.041677106 0.25670946
0.066233136 0.017579956 -0.22252977 0.01751265 0.29987654 0.19193386 -0.117097765 0.022551443
0.14603391 0.32034352 -0.088837676 -0.2836892 -0.08170983 -0.13698636 0.28760242 -0.13016208
-0.01180377 0.11829562 0.008569079 0.06664742 0.00801876 0.022171663 -0.1182027 -0.118549936
-0.16442944
00000000: b91c 8dbe fbd1 0fbf 97ff b53d 941b fb3e
00000010: c28f 79be 755a 51be c644 d63d 1977 b13e
00000020: 9e6d acbd 3693 d5be 75e1 573e 22d6 7e3b
00000030: c650 81be 42c6 71be 617c 47bd 9b0b 5e3e
00000040: b2a2 2cbf 11e2 813e 6884 c6bd b816 90bd
00000050: 2502 803e 1b45 443e 29e3 d63d b3e7 9fbd
00000060: aaef 49bd 9cdb 5abe 0861 503e b5b3 77be
00000070: 84c2 cfbd 5149 4dbe 974e 263d 63ba 3dbe
00000080: 569b 16be c476 8c3d 1a61 633e 9ca3 b2be
00000090: 460e 1abe 309e 143e 0da9 503e 73d6 913c
000000a0: ad17 14be 4066 a63d 0c81 fcbd 267f cd3d
000000b0: 2f4b 87be 1280 5fbe fb26 9b3e 52f5 6ebe
000000c0: d842 bbbe cc7f e63e d9cd c0be 4b08 edbe
000000d0: 9fc7 953e 1d50 5bbe ea26 003e 1715 01bd
000000e0: df20 37be 4fa4 4f3e 1956 6bbc 1089 7c3d
000000f0: 4bc7 29be ae03 853d 0dbe 543d 235a a03e
00000100: 4695 9e3d ad8c 62be b94c 393e 3cef ddbd
00000110: b026 73be 38d4 053d 4fc5 62be 7eaf 88bc
00000120: 89ee 033b 026e ccbe 7daa c43e fe1f e23d
00000130: a93c 2bbe b51f fc3d ceb7 4ebd 0c4c f23d
00000140: a7a4 2b3e 0852 5ebd 634e 25bd 840f 003e
00000150: 963c 8cbd 0ab5 f23b ea80 36bc 70b9 d83d
00000160: 19c1 b8bd 2501 853d 6d3d 87be 8c84 b6be
00000170: 8ee0 363e e587 ebbe 8a61 55be 59bb 923b
00000180: 4bbf dd3d 0221 6a3d 749d 333e 6522 42be
00000190: 0d1d 9a39 045e aabd 8091 323e 51fa f6bd
000001a0: 83d2 32be 9b6d fc3d 2021 1bbe 19da e8ba
000001b0: dde1 4a3e 1897 1a3e 3dc5 80be a139 dc3d
000001c0: 15fd b3be 05f4 11be 93ad cfbe 30dc b6bd
000001d0: 2be1 523d d50c 153e 1b99 31be 7716 8cbe
000001e0: f5bd 3fbd 72e3 e9be 823a 25bd 2ec0 18bf
000001f0: 5c8b 753d 55fb 48bd f363 853d 5126 e83d
00000200: 24e4 54be e595 ed39 c042 093e 3cff 193d
00000210: 50d5 a6bd ea99 d9bd 6b45 693e 219f a3be
00000220: c915 a9bd de8f d4bd 5a15 cc3d 782e 043f
00000230: 1152 7b3e 8765 b43e 4116 98bd d292 1dbe
00000240: eebb 59be 9143 023d 3f4e f0bd 5719 2c3e
00000250: 2899 fb3d c7e0 e13d 895b 8d3d 3075 9d3e
00000260: be57 353e 62eb e03e 2d96 e0bc 4cd0 c7bc
00000270: 46e3 d33c ff58 41be 86f4 df3c 81af 87be
00000280: 565a d73e a970 1b3d 4c5c a0bd 4138 ecbe
00000290: 86b4 89be 1e67 ccbe 2e0a eb3d 9c0c 293e
000002a0: 9ca2 eabd f916 003f 99d1 613e 0e2e 8d3d
000002b0: 5c03 a4bd 688c 21bd 0ed8 683d 5839 56bd
000002c0: 9de6 4b3d 4da4 2bbe b8e0 31be 0ea0 153c
000002d0: ac85 a9be 3964 953d 928a 673e 7d43 26be
000002e0: b7f4 45bf 6a4b 533e 546d 853d 622b 7ebe
000002f0: 7297 57be f956 873e 28d3 d83e 15ff 5abe
00000300: 9315 bbbe a6ee b83e a02f 843d 01c7 f7be
00000310: 4e88 90be 8cec cc3e 9db5 2abd 6c6f 833e
00000320: 3da5 873d d703 903c d8de 63be b076 8f3c
00000330: 6b89 993e 4f8a 443e f4d0 efbd cebd b83c
00000340: ea89 153e 1104 a43e 87f0 b5bd b63f 91be
00000350: 7c57 a7bd 2746 0cbe a040 933e 3549 05be
00000360: 9a64 41bc f944 f23d 5365 0c3c 717e 883d
00000370: 1e61 033c 59a1 b53c 4214 f2bd 4fca f2bd
00000380: 3160 28be

conv_block_2.1.bias f4 [5]
-0.4066083 -0.47213775 -0.24169417 -0.43706784 -0.43312722
00000000: f72e d0be 0abc f1be ad7e 77be 5bc7 dfbe
00000010: dac2 ddbe

classifier.1.weight f4 [24, 245]
-0.3809237 0.6632832 0.6244787 -0.9618884 -0.504688 -0.5570125 0.28690374 -0.27112395
2.116148 1.5106705 0.19500473 0.27623415 0.064974874 1.0131214 0.090763964 0.27836224
0.090814315 0.59864193 -0.6563647 -0.27471623 1.1136527 -0.78326195 0.28307733 -0.32992786
-0.2442768 -0.95513386 -1.3038735 -0.8866861 -0.64846945 0.12956356 -0.042782795 -0.09640998
0.18792647 -1.1759253 -1.4928863 -0.095514975 0.20186192 -0.70593894 0.82841295 0.8350209
-0.47793388 -0.90372205 -0.27796406 -0.14161764 0.016018772 0.65803796 0.7220947 0.9169759
-0.97074425 0.6319118 0.11960289 -0.32692635 -0.034852047 0.3512401 -0.89506876 0.66340345
-0.56124365 -0.7534895 0.6516451 0.0013176625 0.13712175 -0.26247427 -0.07339577 -0.18393196
0.27554452 0.82124543 -0.13284177 -0.3474547 -0.5253623 0.28311235 0.60456336 0.6396684
0.5796991 0.67923903 -1.1092325 0.33474657 1.3782983 -0.13322166 -0.18834029 0.119708374
0.18696038 -1.522062 -0.7317277 0.7930447 0.15204301 -0.30160078 -0.33103594 -1.2879316
-1.174377 -0.45001903 -0.93807614 0.08276184 -0.23762369 -0.20353198 -0.13234435 -0.84745985
-0.880175 0.116566785 0.37192222 1.15548 1.680058 -0.013545178 -1.3272684 -0.6205815
0.9297518 1.1316179 0.4975409 0.22367577 -0.51062685 -0.156459 1.4240867 -0.6960024
0.56126213 -0.30128795 0.26107442 -1.5378549 0.9007158 0.25300717 -1.3413466 0.62921965
0.1758856 -1.5108398 -0.5679943 -0.22633764 0.058304932 -0.34124666 0.22214349 0.105459034
-1.7090695 -0.7721273 0.7346774 0.7218974 -0.10944812 -0.8016229 -0.3786283 -0.21116988
0.03480737 0.5535968 0.50883394 0.8609072 -1.4045004 -0.79143536 0.6362202 0.7596242
-0.41962707 0.10343493 0.17188549 0.5620127 -0.67438614 -1.0530293 -0.7300594 -0.95175606
-0.22413555 -0.5180813 0.09254243 0.32243046 0.72224593 0.13612086 -0.481171 0.8419483
-0.106924064 0.77847755 -0.0814075 -0.3791159 -0.14176524 0.5260991 0.6835883 0.243775
0.99553734 -0.17100298 0.10219556 0.26877362 -0.3582861 0.07783816 1.6169847 1.2724202
-0.12192682 -1.6764662 -0.8321011 -0.46521556 0.25918838 0.665249 0.8472402 0.10062203
-0.95891464 -1.290328 0.14879951 0.13277009 -0.2576224 0.5718167 0.28218296 -0.4068372
-0.45879266 0.014309797 -0.81704307 -1.0890177 1.1815789 -0.13452885 0.65470785 -1.0181444
-1.0753658 -0.90868986 0.23389444 1.1431605 -0.4953715 0.54927963 0.6951395 0.012737483
-0.12260008 0.85620475 0.8147147 1.6387287 -1.1847943 -0.54267997 -1.1845341 -0.98914826
-0.5818499 -0.124539495 2.2315729 -0.45753774 0.20767815 0.25508475 -1.0553428 -1.5877714
0.85064995 -0.029046314 0.12327325 1.9531194 1.6047854 -0.26175475 -0.13683482 -0.39612722
0.53452027 -0.50316197 -0.9292115 -0.23854357 -0.16884373 0.18865006 -0.62144804 0.06484709
1.4050678 -0.2927003 -1.2174802 0.41151774 0.99008715 0.49164644 -0.04493832 0.1168335
-0.87129074 1.4045681 1.8175669 0.9015386 -0.025549855 -0.12595494 -1.4935726 -0.66850394
00000000: 6e08 c3be eecc 293f d6dd 1f3f 513e 76bf
00000010: 3c33 01bf 5f98 0ebf 0ce5 923e c2d0 8abe
00000020: f86e 0740 a75d c13f 52af 473e 906e 8d3e
00000030: 8c11 853d f6ad 813f 75e2 b93d 7f85 8e3e
00000040: dbfc b93d 9940 193f 8407 28bf 9ba7 8cbe
00000050: 2c8c 8e3f db83 48bf 83ef 903e 4eec a8be
00000060: b323 7abe a783 74bf 54e5 a6bf dcfd 62bf
00000070: 1802 26bf 4fac 043e 033d 2fbd 9872 c5bd
00000080: cc6f 403e b884 96bf e616 bfbf 5b9d c3bd
00000090: e4b4 4e3e 6ab8 34bf df12 543f eec3 553f
000000a0: c0b3 f4be 545a 67bf 4e51 8ebe 3704 11be
000000b0: cd39 833c 2d75 283f 33db 383f efbe 6a3f
000000c0: b282 78bf f9c4 213f 5cf2 f43d e462 a7be
000000d0: 05c1 0ebd bed5 b33e 3a23 65bf cfd4 293f
000000e0: aaad 0fbf b0e4 40bf 37d2 263f 6bb5 ac3a
000000f0: a569 0c3e 0763 86be 8550 96bd a958 3cbe
00000100: 2c14 8d3e 243d 523f ac07 08be 95e5 b1be
00000110: 257e 06bf 1af4 903e aac4 1a3f 4fc1 233f
00000120: 2967 143f 9ce2 2d3f 55fb 8dbf e763 ab3e
00000130: 146c b03f 426b 08be 47dc 40be aa29 f53d
00000140: 8b72 3f3e edd2 c2bf 8252 3bbf fa04 4b3f
00000150: 2ab1 1b3e 6b6b 9abe 8b7d a9be f1da a4bf
00000160: fc51 96bf e568 e6be c225 70bf 0a7f a93d
00000170: a053 73be b06a 50be 4785 07be 21f3 58bf
00000180: 2653 61bf 91ba ee3d 976c be3e c5e6 933f
00000190: 240c d73f 98ec 5dbc eee3 a9bf 6ede 1ebf
000001a0: 3704 6e3f dbd8 903f aebd fe3e 430b 653e
000001b0: 71b8 02bf ca36 20be 7948 b63f 372d 32bf
000001c0: e0ae 0f3f 6a42 9abe 8cab 853e 6ed8 c4bf
000001d0: 5095 663f 288a 813e 3fb1 abbf 8a14 213f
000001e0: 5b1b 343e 3363 c1bf 1368 11bf 0ec5 67be
000001f0: 27d1 6e3d e2b7 aebe 9579 633e e8fa d73d
00000200: cac2 dabf 22aa 45bf d113 3c3f 45ce 383f
00000210: 5626 e0bd 2937 4dbf 92db c1be eb3c 58be
00000220: 2c92 0e3d 85b8 0d3f f142 023f 6a64 5c3f
00000230: abc6 b3bf 829b 4abf 54df 223f bb76 423f
00000240: 5cd9 d6be b1d5 d33d c002 303e 10e0 0f3f
00000250: 92a4 2cbf aac9 86bf 2ce5 3abf 49a6 73bf
00000260: ca83 65be faa0 04bf e386 bd3d 9b15 a53e
00000270: 1ce5 383f 4463 0b3e 0c5c f6be ec89 573f
00000280: 01fb dabd 4e4a 473f fab8 a6bd 7b1b c2be
00000290: e82a 11be 6eae 063f a5ff 2e3f 27a0 793e
000002a0: 89db 7e3f 681b 2fbe e84b d13d b29c 893e
000002b0: 4771 b7be 9d69 9f3d 5bf9 ce3f aade a23f
000002c0: c5b4 f9bd 7296 d6bf 9404 55bf bc30 eebe
000002d0: 57b4 843e c24d 2a3f bce4 583f ec12 ce3d
000002e0: 6e7b 75bf 7829 a5bf e65e 183e e2f4 073e
000002f0: 15e7 83be 9462 123f 497a 903e f74c d0be
00000300: dfe6 eabe a473 6a3c bc29 51bf ef64 8bbf
00000310: fa3d 973f eec1 09be ef9a 273f 8e52 82bf
00000320: 96a5 89bf e69f 68bf 0682 6f3e 1553 923f
00000330: 55a1 fdbe 979d 0c3f aaf4 313f e0b0 503c
00000340: c015 fbbd 3c30 5b3f 2591 503f ddc1 d13f
00000350: 57a7 97bf 13ed 0abf d09e 97bf d238 7dbf
00000360: 1df4 14bf 900e ffbd 17d2 0e40 6342 eabe
00000370: 95a9 543e 789a 823e 7915 87bf 183c cbbf
00000380: 32c4 593f 89f2 edbc b076 fc3d d1ff f93f
00000390: 9c69 cd3f b804 86be 6d1e 0cbe 30d1 cabe
000003a0: 52d6 083f 39cf 00bf cee0 6dbf c444 74be
000003b0: 5fe5 2cbe 7b2d 413e 3817 1fbf 8dce 843d
000003c0: 43d9 b33f d0dc 95be 64d6 9bbf 74b2 d23e
000003d0: 5a76 7d3f 15b9 fb3e 3e11 38bd 6746 ef3d
000003e0: e90c 5fbf e3c8 b33f 08a6 e83f 3ccb 663f
000003f0: ee4d d1bc 55fa 00be 632d bfbf 1323 2bbf

classifier.1.bias f4 [24]
-1.0186201 -1.2574227 -1.3303905 -0.95950323 -0.9107692 0.8316703 0.18744008 0.07363294
0.06449204 -0.5000995 0.87694156 0.49055132 -1.4378494 -1.052386 0.6680815 -0.5145257
-0.70699376 0.45858374 1.5139301 0.04588922 0.8054327 1.3572191 1.8357128 -0.75170416
00000000: 2562 82bf 3af3 a0bf 3c4a aabf 01a2 75bf
00000010: 2c28 69bf 58e8 543f 4bf0 3f3e decc 963d
00000020: 6714 843d 8506 00bf 3e7f 603f 8b29 fb3e
00000030: 730b b8bf 96b4 86bf 6407 2b3f f5b7 03bf
00000040: 8bfd 34bf 7dcb ea3e 76c8 c13f 56f6 3b3d
00000050: d630 4e3f 5bb9 ad3f a3f8 ea3f af6f 40bf
