Projects/Hand-Sign-Models/best_model2.pth (torch, 30512 bytes, 10 tensors)

conv_block_1.0.weight f4 [5, 1, 3, 3]
0	0xbe1b83c5	-0.15186985
1	0x3e3fd28e	0.18732664
2	0xbeaba96a	-0.3352769
3	0x3a8bdc4d	0.0010670513
4	0xbe84dde7	-0.25950548
5	0x3e84df23	0.2595149
6	0xbe814713	-0.25249538
7	0xbe63ff9c	-0.22265476
8	0x3ec74b79	0.3892477
9	0x3e4507b8	0.19241226
10	0x3d812a25	0.063068666
11	0xbe4ab953	-0.19797258
12	0xbe77d9fa	-0.24204245
13	0xbf07d063	-0.5305235
14	0xbd4213d8	-0.047382206
15	0x3e65f77e	0.22457692
16	0xbe9ab8de	-0.30219167
17	0xbe051c7b	-0.12999146
18	0xbe79f31b	-0.24409144
19	0xbe61db5b	-0.22056334
20	0xbe6f5d6e	-0.23375484
21	0xbde1dd86	-0.1102858
22	0x3e898d64	0.26865685
23	0x3cda3ab9	0.02663933
24	0xbe6ab752	-0.22921494
25	0x3e8050a7	0.25061533
26	0x3e87ed1e	0.26548094
27	0x3d923821	0.07139612
28	0x3e3803a0	0.17970133
29	0xbedddd07	-0.43332693
30	0xbe780ef2	-0.24224451
31	0x3edc0d77	0.42979023
32	0xbeccc354	-0.39992774
33	0x3e39ec97	0.18156658
34	0x3eb0383f	0.34417912
35	0x3ae90006	0.0017776496
36	0xbe163486	-0.14668474
37	0x3e922acd	0.2854828
38	0xbdbc01d4	-0.09180036
39	0xbeab62b9	-0.33473757
40	0x3d10b8d2	0.03533251
41	0x3d921061	0.0713203
42	0x3ddb17e7	0.106979184
43	0xbeb1642a	-0.34646732
44	0x3e1f0554	0.15529376

conv_block_1.0.bias f4 [5]
0	0x3e8c4a88	0.27400613
1	0x3f02f27a	0.5115124
2	0x3def8421	0.116951235
3	0xbe64199d	-0.22275396
4	0x3e683a81	0.22678567

conv_block_1.1.weight f4 [5, 5, 3, 3]
0	0xbe1d17b8	-0.15341079
1	0x3e20f1ce	0.15717241
2	0x3ed05199	0.40687254
3	0xbe6d18ea	-0.23154035
4	0xbd8f5a56	-0.06999652
5	0x3e4a4f51	0.1975682
6	0xbea7748d	-0.3270611
7	0x3df53199	0.119723506
8	0x3eddbd0e	0.433083
9	0xbc42722d	-0.011868042
10	0x3e103216	0.14081606
11	0x3e20a04f	0.15686153
12	0x3e6bc669	0.23024906
13	0x3e84ced0	0.25939035
14	0xbdbeb80b	-0.09312447
15	0xbd3ef983	-0.04662467
16	0x3d2c6ee5	0.042097945
17	0xbea48c18	-0.32138133
18	0x3cda96c5	0.02668322
19	0xbe601fc7	-0.21887122
20	0x3dc8a0e1	0.0979631
21	0xbe97af65	-0.29626003
22	0xbe14c304	-0.14527518
23	0x3e72c1c2	0.23706725
24	0x3d644da0	0.05573809
25	0x3e4fe027	0.20300351
26	0x3f23d302	0.6399385
27	0xbdca308f	-0.09872543
28	0xbe14bad9	-0.14524402
29	0x3cbb30e5	0.022850463
30	0x3effd349	0.49965885
31	0x3af56066	0.0018720746
32	0x3d88b98e	0.06676017
33	0x3f21a8cc	0.6314819
34	0xbe1ed974	-0.1551264
35	0x3d74131c	0.059588537
36	0xbc9cc5f9	-0.01913737
37	0x3e5f280f	0.21792625
38	0x3e497608	0.19673932
39	0x3c704ab6	0.01466625
40	0x3d81a962	0.06331135
41	0x3dcb9e47	0.099422984
42	0xbe22f57b	-0.15913956
43	0x3cd783ee	0.026308026
44	0xbd8732d5	-0.06601492
45	0x3cc4fc3a	0.024046052
46	0x3d8562da	0.06512995
47	0x3b2cb86b	0.002635504
48	0xbde08d12	-0.10964407
49	0x3e118bb8	0.14213455
50	0x3ac1820f	0.0014763492
51	0xbe3790e5	-0.17926367
52	0x3c52fd32	0.012877749
53	0xbe5949bf	-0.21219538
54	0x3de987de	0.11402868
55	0xbd8bb8d8	-0.068223655
56	0xbf23ae5d	-0.6393793
57	0x3eb878e0	0.3602972
58	0x3deae0c4	0.11468652
59	0xbe92f6e5	-0.2870399
60	0x3e39566a	0.1809937
61	0x3dae01a5	0.084964074
62	0xbe90f421	-0.28311256
63	0xbd922fb4	-0.07138005
64	0xbe30e11c	-0.17273372
65	0x3e8a06f4	0.2695843
66	0xbc3bd664	-0.011464689
67	0xbf067e6b	-0.5253665
68	0xbe051a2d	-0.12998267
69	0x3e87bf5d	0.26513186
70	0xbe119540	-0.1421709
71	0x3e491734	0.19637758
72	0x3e82e12d	0.2556242
73	0xbec666da	-0.38750345
74	0x3e7e8229	0.2485434
75	0xbca5817c	-0.020203345
76	0xbef88059	-0.48535421
77	0xbd0231d7	-0.031785812
78	0x3f030631	0.5118132
79	0xbe633405	-0.22187813
80	0x3ec3b586	0.3822443
81	0xbc3a053c	-0.011353787
82	0xbddbf6d1	-0.10740436
83	0xbdcf8e26	-0.101345345
84	0x3e50d4c3	0.20393662
85	0x3d9189f0	0.071063876
86	0x3e4a87a7	0.1977831
87	0xbdc83c1f	-0.09777092
88	0xbe187246	-0.14887342
89	0xbd233770	-0.03984779
90	0xbdc736da	-0.09727259
91	0x3e4eb97b	0.20187943
92	0x3dd3fedc	0.10351345
93	0x3d36be68	0.04461518
94	0x3eb3efa4	0.3514377
95	0x3db0a287	0.0862475
96	0x3e07f061	0.13275291
97	0x3e4bdc5f	0.19908284
98	0xba52ddfa	-0.00080439413
99	0x3eb2b8d7	0.34906647
100	0x3e6a07f5	0.22854598
101	0x3da94360	0.08264804
102	0x3edd5bc7	0.43234083
103	0x3e7996cc	0.2437393
104	0x3b4458e2	0.0029960205
105	0x3e9a5561	0.30143264
106	0xba836be6	-0.0010026663
107	0xbe12defa	-0.14342871
108	0xbf47f85f	-0.7811336
109	0xbbef2274	-0.0072978083
110	0x3e0578ef	0.13034414
111	0xbe947d27	-0.29001734
112	0x3e5bc9c0	0.2146368
113	0x3e97330e	0.2953114
114	0xbd91d5cf	-0.07120859
115	0x3f0613d5	0.5237401
116	0x3e280697	0.16408764
117	0xbf1cd40e	-0.6126107
118	0xbce4890b	-0.027897378
119	0x3d93b5c2	0.07212402
120	0xbeaaf18b	-0.33387408
121	0x3c78ea30	0.015192553
122	0xbd4d4029	-0.050110016
123	0xbdd2e110	-0.102968335
124	0xbe00d55b	-0.12581389
125	0x3dcb6a1a	0.09932347
126	0x3de9f23a	0.11423154
127	0x3e7091ae	0.23493072
128	0xbd388ec0	-0.045058012
129	0xbe6f8a54	-0.23392612
130	0x3e754147	0.23950683
131	0x3e6cd146	0.23126706
132	0xbe15e27b	-0.14637177
133	0x3e1f9fb7	0.1558827
134	0xbd73e9ea	-0.05954925
135	0xbe819ee2	-0.2531653
136	0xbe301750	-0.17196393
137	0x3ec9b6ec	0.3939737
138	0xbe40b4fd	-0.18819042
139	0xbde45065	-0.111481465
140	0x3da2bc87	0.07946115
141	0xbea3d5ee	-0.31999153
142	0x3c843bfc	0.016141884
143	0x3e7c6970	0.24649596
144	0x3d848d90	0.064723134
145	0x3c005e85	0.007835035
146	0xbe482a08	-0.19547284
147	0x3e667934	0.22507173
148	0x3e188f5b	0.14898436
149	0x3d6a12d5	0.057146866
150	0x3e85dc6c	0.2614473
151	0x3eafc301	0.34328464
152	0xbe19f05d	-0.15033098
153	0x3dd91082	0.10598852
154	0xbe77359d	-0.24141546
155	0x3d60757a	0.054799534
156	0x3c40e0b0	0.01177232
157	0xbe9412cf	-0.289206
158	0xbc042ff9	-0.008068078
159	0x3de0d5f6	0.1097831
160	0xbe00c4b5	-0.12575038
161	0x3e13a678	0.14418972
162	0x3e8025dc	0.25028884
163	0xbe875d97	-0.2643859
164	0xbec0a152	-0.37623078
165	0x3eb044ba	0.34427434
166	0x3bf3cdf3	0.0074403225
167	0xbf14010d	-0.57814103
168	0x3f1ee0ca	0.6206175
169	0x3da26734	0.07929841
170	0xbf336d88	-0.70089006
171	0xbe0806a8	-0.13283789
172	0xbea395ed	-0.31950322
173	0x3d52a431	0.051426116
174	0x3c960afa	0.01831578
175	0xbd83cf8d	-0.064360715
176	0x3e20e75f	0.15713261
177	0xbe13fb12	-0.14451244
178	0x3e4ed634	0.201989
179	0x3cdc0eb6	0.026862483
180	0xbdadd1ec	-0.08487305
181	0x3d252394	0.040317133
182	0x3e9b4548	0.30326295
183	0xbc50c173	-0.012741434
184	0x3dfbaefc	0.12289235
185	0xbe081068	-0.13287508
186	0x3e542227	0.20716153
187	0x3da87b64	0.0822666
188	0xbe8affc0	-0.27148247
189	0x3e8149ca	0.2525161
190	0x3e9eb546	0.30997676
191	0x3db8a9f7	0.09016793
192	0x3e50fb1c	0.2040829
193	0x3d81cc12	0.063377514
194	0xbe0bb270	-0.13642287
195	0xbd7bad58	-0.06144461
196	0xbea416aa	-0.3204854
197	0xbeeb8a7d	-0.46004096
198	0xbe766126	-0.24060497
199	0x3d01cfe3	0.031692397
200	0x3e8e534f	0.27797934
201	0x3cf5d3ff	0.030008314
202	0x3e2d722d	0.16938086
203	0x3e459ae9	0.19297375
204	0x3dc2a30a	0.095037535
205	0x3e2945ff	0.16530608
206	0x3e5daa30	0.21646953
207	0x3ec1e0a2	0.37866694
208	0xbeb85184	-0.3599969
209	0xbc2a2cce	-0.010386659
210	0x3ef8614e	0.48511738
211	0x3e1ec783	0.15505795
212	0x3e741503	0.2383614
213	0xbe6be742	-0.23037437
214	0xbeb1db12	-0.3473745
215	0x3e6ade3a	0.22936335
216	0xbe17dd93	-0.14830618
217	0xbdb03015	-0.08602921
218	0x3e78e2ed	0.24305315
219	0xbca87cec	-0.02056738
220	0xbe750830	-0.23928905
221	0xbd27ace3	-0.040936362
222	0x3dd83dfa	0.10558696
223	0x3ddc48db	0.107560836
224	0xbe4221d0	-0.18958211

conv_block_1.1.bias f4 [5]
0	0xbcf43291	-0.029809268
1	0x3bd58bd0	0.006516911
2	0x3d86e30e	0.06586276
3	0xbc038632	-0.0080276
4	0xbe0a902b	-0.13531558

conv_block_2.0.weight f4 [5, 5, 3, 3]
0	0xbdef5c9d	-0.116875865
1	0xbf235d8f	-0.63814634
2	0xbeaa8ed0	-0.33312082
3	0xbd4a484d	-0.049385358
4	0x3e100897	0.14065777
5	0xbddf47f5	-0.109023966
6	0x3dbfef7e	0.093718514
7	0x3efd8999	0.4951904
8	0x3edddd70	0.43333006
9	0xbdb90d63	-0.090357564
10	0xbda3aff6	-0.07992546
11	0xbebd5dd8	-0.3698566
12	0x3d4fe62b	0.050756615
13	0x3dcabc11	0.09899152
14	0xbd701ddb	-0.058622222
15	0x3e0a688c	0.13516444
16	0x3c2e03a8	0.010620989
17	0x3e4117eb	0.1885678
18	0x3d8ea37a	0.069647744
19	0xbed81764	-0.42205346
20	0xbf2e86f8	-0.68174696
21	0x3dd2d993	0.10295405
22	0x3d1b1790	0.037864268
23	0xbd229e9b	-0.03970204
24	0x3be06d75	0.006848986
25	0x3ef036dd	0.46916857
26	0x3f028998	0.509912
27	0xbde096b5	-0.10966245
28	0xbf1270d3	-0.57203406
29	0x3c991fa1	0.01869184
30	0x3d2e2e05	0.042524356
31	0x3e5436d8	0.20724046
32	0xbb99b3d6	-0.0046906276
33	0x3dad63ad	0.08466277
34	0x3eed3128	0.46326566
35	0x3de3a04a	0.11114557
36	0xbd0180de	-0.031617038
37	0xbe99470b	-0.29937014
38	0xbeed043e	-0.462923
39	0x3e170aae	0.14750168
40	0xbdd227b4	-0.10261479
41	0xbdbeadc3	-0.09310486
42	0x3d662fbf	0.056197878
43	0x3eb4999f	0.35273454
44	0x3ed342f6	0.41262025
45	0x3d22e04b	0.039764684
46	0xbbcb08f0	-0.006196134
47	0xbc718b35	-0.014742662
48	0xbf05cfd0	-0.5227022
49	0xbe426232	-0.18982771
50	0x3d73b426	0.059497975
51	0x3d8fd411	0.0702287
52	0x3e2fd0fd	0.17169566
53	0x3dd96fcc	0.10617027
54	0xbeab614f	-0.33472678
55	0xbee6475e	-0.44976324
56	0xbe79e6e5	-0.24404486
57	0xbd311103	-0.043229114
58	0xbe1678f6	-0.1469458
59	0xbe1d9107	-0.15387355
60	0x3e022b3f	0.1271181
61	0x3d53e910	0.051735938
62	0xbec6bdb6	-0.38816613
63	0xbde86b10	-0.113485456
64	0xbe856f47	-0.2606146
65	0x3e7ecd8e	0.248831
66	0xbe185f1c	-0.14880031
67	0xbecbfa76	-0.39839524
68	0x3e959605	0.29216018
69	0x3d3d918d	0.046281386
70	0xbd62c367	-0.05536213
71	0x3e1d68b0	0.15371966
72	0xbed1cd53	-0.40976962
73	0xbe0bc2fb	-0.13648598
74	0x3c617c5b	0.013762559
75	0xbeec2123	-0.4611903
76	0xbdd60193	-0.10449519
77	0xbd12619a	-0.03573761
78	0x3def25a2	0.116771
79	0x3a3d7c48	0.0007228297
80	0xbc7a6ee2	-0.015285226
81	0x3e9ad169	0.30237892
82	0xbe0d3336	-0.13789067
83	0xbe015c12	-0.12632778
84	0x3da23d61	0.07921863
85	0xbe003448	-0.12519944
86	0xbe436855	-0.19082768
87	0xbe7e8fb0	-0.248595
88	0x3dc90662	0.098156705
89	0xbe313410	-0.17305017
90	0x3e10e27e	0.141489
91	0xbe74432a	-0.23853746
92	0x3dac11c0	0.08401823
93	0xbe50ea14	-0.20401794
94	0xbe22e24f	-0.15906642
95	0xbe2a3a73	-0.16623859
96	0x3e2f1b1b	0.17100184
97	0x3ebdccac	0.37070215
98	0x3eafbb27	0.34322473
99	0x3d6fcfb0	0.058547676
100	0xbe3b1b18	-0.18272054
101	0xbd8cdb73	-0.06877794
102	0xbce62126	-0.028091978
103	0x3be965c2	0.007122726
104	0xbe0183d6	-0.12647948
105	0xbd9f4c0e	-0.07778178
106	0x3d8a8591	0.06763757
107	0xbe169178	-0.1470393
108	0x3eb22927	0.34797022
109	0xbd299941	-0.04140592
110	0xbe49a747	-0.19692717
111	0x3cf3a618	0.029742286
112	0xbecf4238	-0.40480208
113	0xbe4af4dc	-0.19819969
114	0xbdacb03a	-0.0843205
115	0x3e9bc694	0.3042494
116	0x3e9b1502	0.30289465
117	0xbe00a53a	-0.12563029
118	0xbf0fb02f	-0.5612821
119	0xbc2cdafb	-0.010550256
120	0x3e26a20b	0.16272752
121	0x3ca5f9e3	0.020260757
122	0xbdfd69a9	-0.12373669
123	0x3d9263c0	0.07147932
124	0x3ecb70d8	0.3973453
125	0x3d17a3a0	0.03702128
126	0x3dd179f2	0.10228337
127	0x3e809986	0.2511713
128	0xbc1f968c	-0.009740483
129	0x3cb4e990	0.022084028
130	0xbe37bd27	-0.1794325
131	0xbe1556d7	-0.14583908
132	0xbeac1099	-0.33606413
133	0x3eade3da	0.339629
134	0x3ea4ede3	0.32212743
135	0x3e94bdb4	0.29050982
136	0x3d7b60ff	0.0613718
137	0xbcc2f8b0	-0.023800224
138	0x3ec84a8f	0.39119384
139	0x3e7992a9	0.24372353
140	0xbea72e89	-0.3265269
141	0x3e076eb1	0.13225819
142	0xbe320c49	-0.17387499
143	0xbd0d1b56	-0.034449898
144	0xbc31c841	-0.010850967
145	0xbe860425	-0.26175037
146	0xbe0f06eb	-0.13967483
147	0x3e80356d	0.2504076
148	0xbdadea14	-0.084919125
149	0xbe6b3afe	-0.22971722
150	0x3ce58747	0.028018607
151	0x3dd1d17e	0.102450356
152	0xbe204402	-0.15650943
153	0xbc8da2f4	-0.017289616
154	0x3e10e7a8	0.1415087
155	0xbe37dd84	-0.17955595
156	0x3e9efe73	0.31053504
157	0xbd92b31f	-0.07163071
158	0xbeced865	-0.4039947
159	0xbe829819	-0.25506666
160	0x3d9eabf4	0.07747641
161	0xbe9e797e	-0.30952066
162	0x3cda0dc8	0.0266179
163	0xbe0139c6	-0.12619695
164	0x3e217d55	0.15770467
165	0x3eb9cf41	0.36290935
166	0x3c0a8d49	0.008456537
167	0xbc008bac	-0.0078458
168	0x3e97f128	0.29676175
169	0x3e38d0fd	0.18048473
170	0x3d38e892	0.04514367
171	0xbe4a43eb	-0.19752471
172	0x3d439f29	0.04775921
173	0x3d403451	0.046924893
174	0x3e584687	0.21120654
175	0x3e30362c	0.17208165
176	0x3e0a3a5c	0.13498825
177	0xbe43da77	-0.19126306
178	0xbe90eb89	-0.283047
179	0xbeb441ef	-0.35206553
180	0xbd4b4c91	-0.049633566
181	0x3e58617f	0.21130942
182	0xbdf88edd	-0.12136624
183	0x3e8cdca6	0.2751209
184	0x3e6683aa	0.22511163
185	0xbe10011e	-0.14062926
186	0xbd557511	-0.052113596
187	0x3c896b9c	0.016774945
188	0xbdcd2685	-0.10017113
189	0xbcc50463	-0.024049943
190	0x3d778b97	0.060435858
191	0xbe7eecc1	-0.24895002
192	0xbe32ab71	-0.17448212
193	0x3d9af6fa	0.07566638
194	0xbe131212	-0.14362362
195	0x3dd4aef0	0.10384929
196	0x3cb4d929	0.022076206
197	0x3bdab7bd	0.0066747353
198	0xbd5d545e	-0.054035537
199	0x3ec557a0	0.38543415
200	0x3dc21584	0.0947676
201	0xbd9e995b	-0.07744094
202	0x3f2872de	0.65800273
203	0x3e453c25	0.19261225
204	0xbea3b06a	-0.3197053
205	0xbdcc58e9	-0.09977896
206	0x3cfbf744	0.030757554
207	0x3e3a064d	0.18166466
208	0x3e0bfd73	0.13670902
209	0xbe44009c	-0.19140857
210	0x3e80f329	0.25185516
211	0x3e851e04	0.25999463
212	0xbed328ad	-0.4124197
213	0xbe6c6ae4	-0.2308765
214	0x3dcc992c	0.09990153
215	0xbe91d121	-0.28479865
216	0xbe09611a	-0.13415948
217	0xbe93ae6f	-0.2884402
218	0x3e05b74d	0.13058205
219	0xbe4e09a1	-0.2012086
220	0x3e81a0d9	0.2531803
221	0x3e6cadf8	0.23113239
222	0x3e983649	0.29728916
223	0xbc9a891f	-0.018864213
224	0x3dda00d7	0.106446914

conv_block_2.0.bias f4 [5]
0	0xbec252ec	-0.3795389
1	0xbe8d0460	-0.275424
2	0x3d4c3274	0.049852803
3	0xbe317c6b	-0.17332618
4	0xbd8d0ad3	-0.0688683

conv_block_2.1.weight f4 [5, 5, 3, 3]
0	0x3efa8cef	0.4893565
1	0x3ea90eb0	0.33019018
2	0x3f01d523	0.50715846
3	0xbdad606c	-0.08465657
4	0x3d0a4698	0.03375873
5	0x3c7c0e2a	0.015384236
6	0xbe9c5ab1	-0.30537942
7	0xbe8ce3f1	-0.27517655
8	0xbe184d10	-0.14873147
9	0x3c3446fb	0.011003251
10	0x3db6b3f2	0.089210406
11	0xbe15cd28	-0.14629042
12	0x3e87125b	0.26381192
13	0xbe0193f4	-0.12654096
14	0x3df1132f	0.11771237
15	0x3ea1fbe8	0.31637502
16	0xbd724aed	-0.059153486
17	0x3dea6439	0.11444897
18	0x3e80a824	0.2512828
19	0x3d2fd794	0.0429302
20	0x3e47e37f	0.19520377
21	0xbdbbcc50	-0.09169829
22	0xbe0dfc2a	-0.13865724
23	0x3d1ecbd2	0.038768597
24	0xbdf24068	-0.11828691
25	0xbdf7bc1c	-0.12096426
26	0xbddfe144	-0.10931638
27	0x3c3a0c3a	0.011355454
28	0x3dd16db6	0.10226004
29	0x3e2c867c	0.16848177
30	0xbeb96a29	-0.36213806
31	0x3e0ae6a9	0.13564552
32	0xbc952904	-0.018208034
33	0xbdc51017	-0.096222095
34	0x3ec723e5	0.38894573
35	0x3d9f1055	0.07766787
36	0x3c9bbb9e	0.019010361
37	0x3e29f56a	0.16597524
38	0xbe1e61b9	-0.15466966
39	0x3dd0a473	0.10187616
40	0x3ee20b3c	0.44149196
41	0x3db62c31	0.088951476
42	0x3d9e9897	0.07743948
43	0x3e304d0f	0.17216896
44	0xbe22a8b0	-0.15884662
45	0x3eaa388e	0.33246273
46	0xbe6bf646	-0.23043165
47	0xbe2316d3	-0.15926675
48	0x3ed389f1	0.41316178
49	0x3ebee7d6	0.37286252
50	0x3e19955f	0.14998387
51	0x3d6a354d	0.057179738
52	0x3ecc7244	0.39930928
53	0x3ec97a2b	0.3935102
54	0x3c3c10da	0.011478627
55	0x3f1a6ade	0.60319316
56	0x3eb99c53	0.36252078
57	0xbe9da961	-0.30793288
58	0x3d62b53d	0.055348624
59	0x3ed78da6	0.42100257
60	0xbe8e303c	-0.27771175
61	0xbe1e1e44	-0.15441233
62	0x3c3f7d4d	0.011687589
63	0x3e9548c0	0.29157066
64	0xbdc9d063	-0.098542
65	0x3d83cdc0	0.06435728
66	0x3e681ba9	0.22666802
67	0x3ee966af	0.45586154
68	0xbcc6ed5d	-0.024283106
69	0xbecad316	-0.3961417
70	0xbe0a256d	-0.1349084
71	0xbe373914	-0.17892867
72	0x3ecda3ef	0.40164134
73	0xbcb3992f	-0.02192363
74	0xbe5dda31	-0.21665265
75	0x3da4f72d	0.080549575
76	0x3e340648	0.17580521
77	0xbe6d0501	-0.2314644
78	0xbec9d888	-0.39423013
79	0x3e9f6897	0.31134483
80	0x3da2e32b	0.07953485
81	0xbd8d1db9	-0.06890435
82	0xbebffb72	-0.37496525
83	0x3d49790a	0.049187697
84	0x3e8a0287	0.26955053
85	0xbea255e9	-0.3170617
86	0xbe438678	-0.19094265
87	0x3ec3e187	0.38258
88	0x3d8af15e	0.067843184
89	0x3e1457fa	0.14486685
90	0x3cb0e7f6	0.021594983
91	0x3d1d1a85	0.03835537
92	0xbd71946f	-0.058979448
93	0xbe7d5154	-0.24738055
94	0x3e744446	0.23854169
95	0x3d290de1	0.041273
96	0xbd280b63	-0.041026484
97	0x3cf1cb07	0.029515756
98	0x3d25e0b1	0.040497486
99	0x3caebb9e	0.021329697
100	0x3ea49372	0.32143742
101	0x3e8cbef8	0.27489448
102	0x3d1efa2a	0.038812794
103	0x3e924cd4	0.2857424
104	0xbd10a277	-0.03531119
105	0xbc8d8017	-0.017272992
106	0x3ec7d255	0.39027658
107	0xbdeaab97	-0.114585094
108	0xbdc56435	-0.096382536
109	0x3e667136	0.22504124
110	0xbd3e2128	-0.04641834
111	0xbe28fa9c	-0.1650185
112	0x3b8f56e4	0.004374372
113	0x3e74cf25	0.23907144
114	0x3d9594d4	0.07303777
115	0xbe34d84b	-0.17660634
116	0xbe449509	-0.19197477
117	0x3e3803c9	0.17970194
118	0xbdd6d6b7	-0.10490172
119	0x3e24d42f	0.16096567
120	0x3eafb503	0.34317788
121	0xbe9d0146	-0.30665034
122	0x3e0177cc	0.12643355
123	0x3ed5b6bf	0.41740987
124	0xbeb4e98b	-0.3533443
125	0x3ddee4ed	0.10883508
126	0xbd79d088	-0.060989887
127	0x3d229c86	0.039700054
128	0x3d94e2bf	0.07269811
129	0xbe58e06e	-0.21179363
130	0xbe4a1648	-0.19735062
131	0x3e613db0	0.21996188
132	0xbeb1c0c5	-0.34717384
133	0xbe9b54d0	-0.30338144
134	0x3ebc982a	0.36834842
135	0xbeb466a5	-0.35234562
136	0xbeae98da	-0.3410099
137	0xbf052761	-0.5201321
138	0xbd4dadfe	-0.05021476
139	0x3df6a906	0.120439574
140	0xbe31796f	-0.1733148
141	0x3e7eab2c	0.24869984
142	0x3ee1cc08	0.44100976
143	0x3e79a6c2	0.2438002
144	0xbcfd6078	-0.030929789
145	0xbe364dc4	-0.17803103
146	0x3ddea575	0.10871402
147	0xbdcd9e54	-0.10039964
148	0x3e7da2d8	0.24769151
149	0x3e6c8564	0.2309776
150	0x3e19b489	0.15010275
151	0x3e9910ab	0.2989553
152	0x3e94e462	0.29080492
153	0xbe87a3bb	-0.26492104
154	0xbe632fd0	-0.22186208
155	0xbdbdafc9	-0.09262044
156	0xbe176749	-0.14785494
157	0x3e92ce46	0.28673
158	0xbdaf3c83	-0.085564636
159	0x3ea65b78	0.3249166
160	0x3cf7b1c4	0.030236132
161	0x3e0b3cac	0.13597363
162	0xbd0c80b3	-0.034302425
163	0x3dada4dc	0.0847871
164	0x3cd00008	0.02539064
165	0x3eaaeca5	0.3338367
166	0x3dd9a8b8	0.10627884
167	0xbd48f5ef	-0.049062666
168	0x3de74196	0.112918064
169	0xbe685251	-0.22687651
170	0xbd9ac3ab	-0.07556852
171	0x3eaa9c57	0.33322403
172	0x3e776e86	0.24163255
173	0x3ce9467d	0.028475994
174	0x3e4435e6	0.19161186
175	0xbe39f196	-0.18158564
176	0xbde9535c	-0.11392853
177	0xbe3bfa2a	-0.18357149
178	0xbd36b23e	-0.04460358
179	0xbe104498	-0.14088666
180	0xbe929236	-0.28627175
181	0x3eac3060	0.33630657
182	0x3f2c3af1	0.6727744
183	0x3e22aff1	0.15887429
184	0x3e2ae122	0.16687444
185	0xbe6c5395	-0.23078759
186	0x3efcc98f	0.49372527
187	0xbe7766b8	-0.24160278
188	0xbed77445	-0.42080894
189	0xbd2557bc	-0.040366873
190	0x3e077d37	0.1323136
191	0x3eca34fb	0.39493546
192	0x3ea93bc6	0.33053416
193	0x3e5f13ff	0.21784972
194	0xbd7459fb	-0.059656125
195	0x3ee6950a	0.45035583
196	0xbc2785e0	-0.010224789
197	0xbe07f983	-0.13278775
198	0xbe9fdbc6	-0.3122236
199	0x3e0c847c	0.13722414
200	0x3e951237	0.2911546
201	0x3e8b78c8	0.27240586
202	0x3e5cc7fb	0.21560661
203	0xbe97cfef	-0.29650828
204	0xbd28f2a8	-0.04124704
205	0xbeb1b1ec	-0.34706056
206	0xbe4f3822	-0.20236257
207	0x3e9bd54a	0.30436164
208	0x3d13ed4a	0.03611497
209	0xbea26b26	-0.31722373
210	0xbdefb5ff	-0.11704635
211	0xbd797684	-0.06090404
212	0x3d43e013	0.047821116
213	0xbec65bed	-0.3874201
214	0x3d6cb23d	0.05778717
215	0x3e7969c3	0.24356751
216	0x3e4deed5	0.20110638
217	0xbe02dc62	-0.12779382
218	0xbd3c929e	-0.046038263
219	0xbd4f3e15	-0.050596315
220	0xbd915847	-0.07096916
221	0x3e15f029	0.14642395
222	0xbe02ebb1	-0.12785222
223	0x3e59a22f	0.21253274
224	0x3e18e816	0.14932284

conv_block_2.1.bias f4 [5]
0	0xbec50cca	-0.3848632
1	0xbea8c7be	-0.3296489
2	0xbe6802d5	-0.2265733
3	0xbecf2d64	-0.40464318
4	0xbe846beb	-0.25863585

classifier.1.weight f4 [24, 245]
0	0x3ca46dd1	0.020071896
1	0x3e9f36ab	0.31096396
2	0xbecdb68a	-0.4017833
3	0xbea9f5a8	-0.33195233
4	0xbea422cc	-0.32057798
5	0xbe878431	-0.26468042
6	0x3e19c152	0.15015152
7	0x3e0170f8	0.1264075
8	0xbcb35d10	-0.021894962
9	0x3f2f92bf	0.6858329
10	0xbd8c1648	-0.06840187
11	0x3e7542d8	0.2395128
12	0xbda1b9c3	-0.07896759
13	0xbea73eca	-0.32665092
14	0x3eabc977	0.33552143
15	0x3d765ddc	0.060148105
16	0x3f1edc03	0.6205446
17	0x3bb42987	0.0054981145
18	0x3e700327	0.23438703
19	0x3e7c8d15	0.24663194
20	0x3f1f4260	0.62210655
21	0x3e8e779f	0.2782564
22	0xbd1b6c64	-0.037945166
23	0x3f1a068b	0.60166234
24	0x3e4c42aa	0.19947305
25	0xbe63a623	-0.22231345
26	0xbe05bf72	-0.13061312
27	0x3efa5d04	0.4889909
28	0x3f1ade7f	0.6049575
29	0x3ec02010	0.37524462
30	0x3d965559	0.073404975
31	0xbec9d632	-0.3942123
32	0xbe810d5d	-0.25205508
33	0xbe74caa5	-0.23905428
34	0x3e8b8383	0.27248773
35	0x3e95a1b2	0.29224926
36	0xbd89185b	-0.066940986
37	0xbc9fdbc8	-0.01951398
38	0xbef5c707	-0.48003408
39	0xbe2ad2ad	-0.16681929
40	0xbdbe1618	-0.09281558
41	0xbe91e5af	-0.28495547
42	0xbdb39d0b	-0.08770188
43	0x3e0d45c4	0.13796145
44	0xbe77e772	-0.24209383
45	0xbd7a8f55	-0.06117185
46	0xbe73974f	-0.23788188
47	0xbe25f42b	-0.16206424
48	0xbdf6073a	-0.12013097
49	0xbea8ed13	-0.32993373
50	0x3e3ac8af	0.18240617
51	0x3e310708	0.17287838
52	0x3ccf3600	0.025294304
53	0xbe960e4c	-0.29307783
54	0xbe8c6cdb	-0.274268
55	0x3d8ab01a	0.0677187
56	0xbdb11612	-0.08646788
57	0x3e815a72	0.25264317
58	0x3ef7507a	0.48303586
59	0x3e9f8454	0.31155646
60	0x3e8e4597	0.27787468
61	0x3e2b5225	0.16730554
62	0x3e9a950f	0.30191848
63	0xbda6c3d1	-0.08142818
64	0xbdb7f70a	-0.08982666
65	0xbe36571a	-0.17806664
66	0x3eb1120f	0.3458409
67	0xbe4d0cef	-0.20024465
68	0xbe9cfede	-0.30663198
69	0xbceef0ac	-0.029167496
70	0x3e3c2bb8	0.18376052
71	0x3e1be523	0.15224127
72	0xbe8ebd30	-0.27878714
73	0xbe94e788	-0.29082894
74	0xbf11271f	-0.5670032
75	0xbf777844	-0.96667886
76	0xbf54e63f	-0.8316383
77	0xbdadfa48	-0.08495003
78	0xbc818f9e	-0.015815552
79	0xbe26326b	-0.1623017
80	0x3e4e26e9	0.2013203
81	0x3e8f5d9c	0.28001106
82	0xbf6c6c95	-0.92353183
83	0xbf7dd7e3	-0.9915754
84	0xbd5a5444	-0.05330302
85	0x3ea69a70	0.325397
86	0xbe35387c	-0.17697328
87	0x3e4442d1	0.19166113
88	0x3e76279b	0.24038546
89	0x3def31a3	0.11679389
90	0xbe0e7c64	-0.13914639
91	0xbea2d3bf	-0.31802174
92	0x3e9bb438	0.30410933
93	0x3e2779a7	0.16355
94	0x3e1ade76	0.15123925
95	0x3b84c01a	0.0040512206
96	0x3ea41470	0.32046843
97	0xbe7d0155	-0.2470754
98	0x3e6bac68	0.23014987
99	0xbe7d6b6d	-0.24748011
100	0x3c19215a	0.009346331
101	0xbf19c5e9	-0.6006761
102	0xbed1e657	-0.40996048
103	0xbd6926ef	-0.056921896
104	0x3db8c990	0.0902282
105	0x3e1bfd6b	0.1523339
106	0x3e016bb1	0.12638737
107	0xbda69a1d	-0.081348635
108	0xbe88cf4e	-0.2672066
109	0xbe894ac6	-0.2681486
110	0xbe15da79	-0.14634122
111	0xbe3de131	-0.18542935
112	0x3e7c277a	0.24624434
113	0x3e906590	0.28202486
114	0xbec76cbd	-0.38950148
115	0x3db5802c	0.088623375
116	0xbe6239e3	-0.22092395
117	0xbf5f45b6	-0.87215745
118	0xbf11e2fe	-0.5698699
119	0x3de3f449	0.11130578
120	0x3e932cb6	0.2874505
121	0xbe8fc18d	-0.28077355
122	0xbe850dd1	-0.25987104
123	0x3df5ce4e	0.1200224
124	0x3d59e1a2	0.053193696
125	0xbebcf47c	-0.36905277
126	0xbea3f40d	-0.32022133
127	0xbd38b872	-0.045097776
128	0xbe8ab318	-0.27089763
129	0x3d532a3c	0.05155395
130	0x3e340106	0.17578515
131	0x3b8e9aaf	0.004351936
132	0x3c8a33ea	0.016870458
133	0x3de82a5c	0.113362044
134	0xbdc0e93a	-0.094194844
135	0x3dfef4fb	0.1244907
136	0x3e443526	0.191609
137	0xbdfffce9	-0.12499411
138	0xbe0b4860	-0.13601828
139	0xba830184	-0.0009994959
140	0x3d21f7e6	0.039543055
141	0x3ebad005	0.3648683
142	0x3ebc99eb	0.3683618
143	0x3ea7bc30	0.32760763
144	0xbeb92f27	-0.36168787
145	0xbd22d1d1	-0.039750878
146	0x3ddb5ebf	0.10711431
147	0x3e59cd9a	0.21269837
148	0x3c6d65d0	0.014489606
149	0xbcb0e3c0	-0.021592975
150	0x3d914d0f	0.07094776
151	0x3e8383cd	0.25686494
152	0x3d08207c	0.033234105
153	0xbd874f4d	-0.06606922
154	0x3e5ccaf2	0.21561792
155	0x3ec31b17	0.38106605
156	0xbece1012	-0.40246636
157	0xbd54aa8a	-0.05192045
158	0x3e587b8e	0.21140882
159	0xbd5612f2	-0.05226416
160	0xbea50742	-0.322321
161	0x3cd67360	0.026178062
162	0xbb3ba12d	-0.0028630004
163	0xbf2cdfe3	-0.67529124
164	0xbdb41a13	-0.08794036
165	0xbdf71283	-0.12064078
166	0xbf1da10c	-0.61573863
167	0xbfac6ff8	-1.347167
168	0x3e056c17	0.13029514
169	0x3dbb7e3a	0.09154935
170	0xbe0adaf6	-0.1356009
171	0xbc9ebc99	-0.01937704
172	0x3e381860	0.17978048
173	0xbe94e63d	-0.29081908
174	0xbe96cab3	-0.29451522
175	0xbda32356	-0.07965724
176	0x3d0f863a	0.035040118
177	0x3f0bcaff	0.5460662
178	0x3f05f64a	0.5232893
179	0x3e711e7e	0.23546788
180	0x3e63da46	0.22251233
181	0x3f013e58	0.50485754
182	0xbb8f382c	-0.00437071
183	0x3ec51364	0.38491356
184	0x3cf38df5	0.029730776
185	0x3e6f3ffd	0.23364253
186	0xbd430c49	-0.047619138
187	0x3e39bdae	0.18138763
188	0x3d95716a	0.07297023
189	0x3e6f654a	0.23378482
190	0xbe274ca7	-0.16337834
191	0xbe5971f0	-0.2123487
192	0xbeb696cc	-0.35661924
193	0xbbcea7e7	-0.0063066366
194	0xbdc543a5	-0.09632043
195	0xbdb6456b	-0.08899959
196	0x3e83e0ba	0.2575739
197	0xbeb73c10	-0.35788012
198	0xbe80aa5e	-0.2512998
199	0xbf23de73	-0.64011306
200	0xbdc579c7	-0.09642368
201	0xbe1503b2	-0.14552191
202	0xbcf3f848	-0.029781476
203	0x3e60fc6d	0.21971293
204	0x3e93964c	0.28825605
205	0xbd7a1725	-0.06105723
206	0xbf2f1807	-0.6839604
207	0x3dfca630	0.12336385
208	0x3ef8b361	0.48574355
209	0xbeab04ad	-0.33402005
210	0x3e7aaa45	0.24479015
211	0x3e5affef	0.21386693
212	0xbef28503	-0.47367105
213	0xbdcac4dd	-0.0990083
214	0x3f21035f	0.6289577
215	0x3e8ef02e	0.27917618
216	0xbe993d5f	-0.29929635
217	0x3e1af578	0.15132701
218	0x3e828b7e	0.2549705
219	0xbe970a92	-0.29500252
220	0xbed534ea	-0.41641933
221	0x3c0b57b9	0.008504801
222	0x3f673c42	0.9032632
223	0x3be119be	0.006869524
224	0x3e26e2d2	0.16297463
225	0xbea9d4e4	-0.33170235
226	0xbeab5ca4	-0.33469117
227	0xbf0d7b22	-0.5526601
228	0x3db8715f	0.09005999
229	0x3e2594f7	0.16170107
230	0x3e1702ec	0.14747208
231	0xbe274dda	-0.16338292
232	0xbed1380c	-0.40863073
233	0xbef6b5e3	-0.48185644
234	0x3e03a0bb	0.12854283
235	0xbbee8d7b	-0.0072800494
236	0xbe3a0ef4	-0.18169767
237	0x3d6f406f	0.058411058
238	0xbe611163	-0.21979289
239	0xbdff13b3	-0.12454929
240	0xbe47c163	-0.19507365
241	0x3dc6064b	0.09669169
242	0xbea680a5	-0.32520023
243	0xbeda2b97	-0.4261138
244	0xbe45ad9d	-0.1930451
245	0x3c09578d	0.00838269
246	0x3e3b6e77	0.18303858
247	0xbb1417c1	-0.0022597166
248	0xbe7cafc0	-0.24676418
249	0x3e27f3b8	0.16401565
250	0x3e91ad0e	0.28452343
251	0x3d58797d	0.052850235
252	0x3e84e625	0.25956836
253	0x3e25ffba	0.16210833
254	0xbe8b6a4d	-0.2722954
255	0x3f07e35e	0.5308131

classifier.1.bias f4 [24]
0	0xbe1f810b	-0.1557657
1	0xbceff5c2	-0.029291991
2	0xbe7153a9	-0.2356707
3	0xbe4d6f04	-0.2006188
4	0xbe741624	-0.23836571
5	0x3e0394a6	0.12849674
6	0x3d8b7e2a	0.06811173
7	0x3dbb99ac	0.0916017
8	0x3df1bc1c	0.11803457
9	0xbde155e0	-0.110027075
10	0x3de0f85b	0.1098487
11	0xbd3a6656	-0.04550775
12	0xbe9332ce	-0.28749698
13	0xbe21c09a	-0.15796128
14	0x3d10b3ec	0.035327837
15	0x3d9de5a6	0.077098176
16	0xbd1e7ed7	-0.038695183
17	0x3bb10a7e	0.005402862
18	0x3e578b70	0.21049285
19	0xbd8e48bd	-0.069474675
20	0xbd234ac9	-0.039866243
21	0x3e71b39c	0.23603672
22	0x3e9c789c	0.30560768
23	0x3dd895f1	0.10575474
