Projects/Hand-Sign-Models/best_model4.pth (torch, 30576 bytes, 10 tensors)

conv_block_1.0.weight f4 [5, 1, 3, 3]
0.024337567 0.043901924 -0.02350883 0.09366438 0.15896352 0.0932653 -0.3671527 0.0067009004
0.023971632 0.34440175 -0.33731788 0.019677382 -0.21206202 -0.07621416 -0.26427326 0.24492319
-0.05745934 0.090955324 -0.23686801 -0.20766029 -0.038610697 0.28514424 0.26186043 0.07776452
-0.04051931 0.30464533 -0.024763163 -0.26357388 0.088471375 -0.19412795 0.26760083 0.01508456
-0.1683964 0.29371312 -0.32398856 0.32514933 0.22185695 0.3871345 0.07455094 0.13879609
0.11212353 0.11555892 -0.08113246 -0.061396033 -0.30132183
00000000: 945f c73c 81d2 333d 9795 c0bc 1cd3 bf3d
00000010: 55c7 223e e101 bf3d 70fb bbbe 3a93 db3b
00000020: 2860 c43c 6d55 b03e eeb4 acbe 7632 a13c
00000030: c926 59be 2b16 9cbd d34e 87be 25cd 7a3e
00000040: 7c5a 6bbd c946 ba3d 878d 72be e6a4 54be
00000050: 4026 1ebd 6dfe 913e 9212 863e 0143 9f3d
00000060: 93f7 25bd 79fa 9b3e 1edc cabc 28f3 86be
00000070: 7b30 b53d 7ac9 46be fa02 893e 3b25 773c
00000080: 1b70 2cbe 9161 963e d4e1 a5be f979 a63e
00000090: 782e 633e 7e36 c63e 2aae 983d 9020 0e3e
000000a0: 05a1 e53d 28aa ec3d c628 a6bd 687a 7bbd
000000b0: db46 9abe

conv_block_1.0.bias f4 [5]
-0.05063349 0.09698507 -0.23379941 -0.09668602 -0.3085874
00000000: 1065 4fbd 1ca0 c63d 1d69 6fbe 5203 c6bd
00000010: 2bff 9dbe

conv_block_1.1.weight f4 [5, 5, 3, 3]
0.021235082 -0.058952868 -0.009532527 -0.22608693 0.0943908 0.32811365 -0.4411257 0.073669516
0.13026674 0.3994917 -0.20107695 -0.030930378 0.17104633 -0.14592089 -0.42763516 0.32550818
-0.10024631 0.025923213 -0.31047013 -0.35925582 0.104201406 -0.022591216 -0.050642185 0.1730347
0.34097844 -0.056867775 0.5040319 -0.068579495 -0.20298949 -0.3175003 0.060387496 -0.10284219
-0.040141582 0.60285693 0.30693159 -0.05298836 0.007334572 -0.17996076 0.019059518 -0.09780988
-0.4502869 0.19090524 0.20668915 -0.23289181 0.08649752 -0.05133544 0.21718004 0.004057726
0.1678126 -0.0066549294 0.20442323 -0.3439085 -0.28765574 0.16041207 -0.41072434 0.09528037
-0.041518603 -0.16206676 -0.022300871 -0.21919048 0.6213394 0.6418224 -0.54145956 -0.3961108
-0.29171184 0.30859587 0.5950976 -0.34228328 -0.14816381 0.2734259 -0.0049273698 -0.022963542
-0.6021727 0.27586392 0.45276654 0.030500108 -0.03967804 -0.10618395 0.4146305 -0.02496188
-0.2167875 0.28476775 0.4891994 0.4962724 -0.26495978 -0.074159145 -0.09190922 -0.07059384
-0.4699629 -0.016068593 -0.059117842 -0.062694475 0.15546426 -0.15710944 0.06900726 0.06057952
-0.29553834 0.20893116 -0.062979415 0.1612912 0.1760403 -0.034500834 -0.26671556 -0.15888253
0.014463025 -0.115383826 -0.03633914 0.39307848 -0.35263354 -0.1895603 0.009293688 0.38152787
0.064831294 -0.0740725 0.5932277 -0.08029639 -0.612937 -0.4659469 0.2129814 -0.34201944
0.58330244 0.0042389133 -0.32073396 0.3908306 -0.24565001 0.209712 -0.73114747 -0.2993673
0.04554642 -0.47659853 0.15951148 0.6901592 0.20469168 0.47106436 0.101259775 -0.05811114
0.081633694 -0.15549214 -0.07167667 -0.025401669 0.21544538 -0.0808846 -0.0910396 -0.07499668
-0.21603376 0.12754416 0.69826734 -0.18435548 0.51282936 -0.15433909 0.0777259 0.16021782
-0.40320453 0.194014 -0.22456893 -0.50301605 0.08885579 -0.2587776 0.1439646 0.36087304
-0.23828855 0.5099383 -0.10800026 0.07823963 -0.0511144 0.1848678 -0.20414619 -0.19426265
0.30431962 -0.024227437 0.20737617 0.19726852 0.42370006 -0.28018886 0.5398354 -0.068896204
-0.61681837 0.37567472 -0.3343665 -0.3878861 0.63807964 -0.31738302 -0.47999725 0.18034717
0.17546237 -0.21646374 -0.7209032 0.31222442 0.30899 -0.20176864 0.21116385 0.39948195
-0.4153154 -0.19042316 0.22186449 0.52991194 -0.19863798 -0.21549924 -0.30182922 0.3290964
0.5303384 -0.26004523 0.29125136 0.3019084 -0.2844611 -0.21338364 -0.29643118 -0.6514263
0.28607863 0.6307908 0.033125725 -0.26860207 0.39404684 0.19798367 -0.37018928 0.2077461
0.4402843 0.29069138 0.18717574 -0.30029482 0.14151742 0.15521652 -0.54968184 -0.0953934
-0.24507561
00000000: 32f5 ad3c 9078 71bd 512e 1cbc 5583 67be
00000010: f74f c13d 83fe a73e 3adb e1be 0be0 963d
00000020: a564 053e 2d8a cc3e 1ee7 4dbe b461 fdbc
00000030: c526 2f3e 496c 15be fff2 dabe 02a9 a63e
00000040: f04d cdbd eb5c d43c f1f5 9ebe 61f0 b7be
00000050: 8c67 d53d 3711 b9bc 2e6e 4fbd 0230 313e
00000060: ba94 ae3e 2fee 68bd 3c08 013f 6873 8cbd
00000070: 7adc 4fbe 668f a2be e158 773d ed9e d2bd
00000080: 806b 24bd d554 1a3f 2326 9d3e 530a 59bd
00000090: d956 f03b a247 38be b522 9c3c 8c50 c8bd
000000a0: 018c e6be aa7c 433e 52a6 533e 317b 6ebe
000000b0: 9d25 b13d 1c45 52bd 7264 5e3e acf6 843b
000000c0: 11d7 2b3e 9811 dabb 5354 513e c614 b0be
000000d0: 9d47 93be 1043 243e 764a d2be 5b22 c33d
000000e0: 690f 2abd d4f4 25be 51b0 b6bc 7873 60be
000000f0: 1910 1f3f 794e 243f 189d 0abf 09cf cabe
00000100: 415b 95be 4700 9e3e 5158 183f c13f afbe
00000110: 41b8 17be 7bfe 8b3e c675 a1bb 0a1e bcbc
00000120: fd27 1abf 093e 8d3e 04d1 e73e 5ddb f93c
00000130: 7185 22bd f976 d9bd 734a d43e db7c ccbc
00000140: 8bfd 5dbe 14cd 913e 5878 fa3e 6a17 fe3e
00000150: cfa8 87be c0e0 97bd e73a bcbd 8193 90bd
00000160: fa9e f0be 48a2 83bc 8d25 72bd f665 80bd
00000170: 0632 1f3e 4ce1 20be ae53 8d3d 3b22 783d
00000180: cd50 97be 0df2 553e 5afb 80bd 8529 253e
00000190: e943 343e bf50 0dbd f18e 88be 1ab2 22be
000001a0: 53f6 6c3c 5b4e ecbd 5ad8 14bd 9541 c93e
000001b0: 628c b4be 181c 42be 8e44 183c 9f57 c33e
000001c0: 45c6 843d 53b3 97bd c5dd 173f 6f72 a4bd
000001d0: 70e9 1cbf 9890 eebe cc17 5a3e 2c1d afbe
000001e0: 4f53 153f 95e6 8a3b 3e37 a4be f31a c83e
000001f0: ad8b 7bbe bebe 563e 7b2c 3bbf ac46 99be
00000200: e28e 3a3d b904 f4be fa56 233e 46ae 303f
00000210: b29a 513e 592f f13e 4961 cf3d f205 6ebd
00000220: 912f a73d 5539 1fbe 38cb 92bd 2917 d0bc
00000230: b79d 5c3e d3a6 a5bd f872 babd dc97 99bd
00000240: f437 5dbe f09a 023e a6c1 323f afc7 3cbe
00000250: c948 033f 110b 1ebe c22e 9f3d 2410 243e
00000260: d370 cebe 9bab 463e 66f5 65be a9c5 00bf
00000270: 06fa b53d 7f7e 84be 756b 133e 5ac4 b83e
00000280: ea01 74be 518b 023f 3e2f ddbd 193c a03d
00000290: 555d 51bd fc4d 3d3e b30b 51be caec 46be
000002a0: c8cf 9b3e 9e78 c6bc 6b5a 543e c200 4a3e
000002b0: 37ef d83e ea74 8fbe a732 0a3f 7419 8dbd
000002c0: cfe7 1dbf 7058 c03e 1632 abbe 0299 c6be
000002d0: 3059 233f 0780 a2be 33c2 f5be eeac 383e
000002e0: 68ac 333e aca8 5dbe 1d8d 38bf e1db 9f3e
000002f0: f033 9e3e 709c 4ebe 563b 583e e688 cc3e
00000300: 38a4 d4be 4afe 42be 7230 633e 4fa8 073f
00000310: c167 4bbe d5ab 5cbe 5c89 9abe 537f a83e
00000320: 42c4 073f a624 85be e61e 953e bd93 9a3e
00000330: e3a4 91be 3e81 5abe d4c5 97be e0c3 26bf
00000340: e678 923e 827b 213f d7ae 073d 3686 89be
00000350: 82c0 c93e 3bbc 4a3e 7389 bdbe 65bb 543e
00000360: f26c e13e 80d5 943e ffaa 3f3e 3ec0 99be
00000370: f1e9 103e 14f1 1e3e f3b7 0cbf 9d5d c3bd
00000380: 1af5 7abe

conv_block_1.1.bias f4 [5]
-0.09028348 -0.0596437 -0.14680159 -0.10652997 -0.112464346
00000000: 8ce6 b8bd f44c 74bd 2853 16be 632c dabd
00000010: b553 e6bd

conv_block_2.0.weight f4 [5, 5, 3, 3]
-0.036261763 0.12251639 0.35011548 0.13041176 0.31410044 0.30717564 -0.00036561346 -0.22741014
0.47217324 0.2926729 0.27227926 -0.0085673705 0.002832123 0.08579486 0.32740715 -0.16093732
-0.58940035 0.25136527 0.19104986 0.12755573 -0.020711629 -0.15201351 0.070097774 0.031731192
0.05169531 0.029987952 0.08873797 0.072586276 0.18926592 -0.017473929 0.15009852 0.01816623
-0.007651118 0.08003046 0.15573518 0.124558985 -0.007666258 0.16787225 0.4252361 -0.057944812
-0.42250896 0.5304213 0.28603393 -0.39499032 -0.19068679 0.23616251 0.007887384 0.001805759
0.18017069 0.015673164 -0.031572584 0.10891616 -0.2947237 -0.27613235 0.30836993 -0.20545682
-0.13636689 0.09536147 -0.077693634 -0.010494832 0.07620224 -0.100956485 0.026277183 0.1561049
-0.09042736 0.36183518 -0.10741376 0.32076526 0.07486343 0.13601649 -0.041199654 -0.20929806
0.27203462 0.05720791 0.02785628 0.36917633 0.118042335 -0.024362423 -0.16531254 -0.026084654
0.07237058 -0.12590748 0.10908694 -0.1026506 0.01982388 -0.19644709 -0.301744 -0.090251215
-0.05432303 -0.19682746 -0.062078856 0.29704294 0.2754046 -0.061623402 -0.022011878 0.008075131
-0.018508272 -0.15263467 0.09395882 -0.05686046 -0.05701887 0.1101359 -0.052641567 -0.053927235
-0.20625582 -0.006419546 0.0544088 -0.007014168 -0.23741582 0.5173415 0.3058717 -0.123135835
0.02128208 0.05734131 -0.2540624 -0.19669259 -0.68745196 0.23121402 0.1297402 0.160526
-0.24009244 -0.06785799 -0.060047906 -0.49225637 -0.14615305 -0.41541153 -0.14235374 0.19203106
0.17132539 -0.10701138 0.1987001 0.13540453 -0.08149914 0.17859396 0.10827593 -0.20218347
0.081267804 0.032163635 -0.06762435 -0.10198606 0.060252663 0.102449544 0.040171586 0.17436182
-0.18247823 -0.07708519 -0.25071096 0.090096205 0.21079691 -0.027274877 0.011330674 -0.20644738
-0.07435385 0.25647068 0.14556639 -0.022638911 0.38264105 0.097303964 -0.49299896 -0.08749628
0.24631344 0.043520704 0.039335568 0.02301864 0.085530065 -0.112930216 0.07538329 0.008890725
0.24195723 -0.121981025 -0.12721893 -0.16839497 -0.10740661 -0.05067374 0.09652799 -0.01937345
-0.1666552 -0.01935783 -0.14191239 -0.34471545 0.0046904245 -0.24156675 0.031165814 0.21195035
-0.17137662 -0.045588803 0.06687765 0.19229053 0.27136883 0.035748407 -0.1347106 -0.041686587
-0.079740934 -0.34079346 -0.0071730562 0.11612877 0.26907137 0.49903545 -0.13724232 0.10339943
0.09987553 0.087342255 0.22523993 0.09453408 -0.052362945 -0.21810593 -0.35568967 -0.32801485
-0.06585277 0.07997972 -0.20180018 -0.11927873 0.4188897 0.09095309 0.42364356 0.3470087
0.1714159 -0.19165014 -0.15737292 0.29399422 0.17463753 -0.20203252 0.13335688 0.1436211
-0.0147933
00000000: 3787 14bd e0e9 fa3d 5642 b33e a98a 053e
00000010: c6d1 a03e 2046 9d3e cfaf bfb9 34de 68be
00000020: b1c0 f13e 39d9 953e 3068 8b3e 285e 0cbc
00000030: 249b 393b 37b5 af3d e9a1 a73e c1cc 24be
00000040: f1e2 16bf f3b2 803e 93a2 433e f89d 023e
00000050: 6fab a9bc 6ea9 1bbe 6c8f 8f3d 91f8 013d
00000060: 76be 533d 4ba9 f53c 41bc b53d 1da8 943d
00000070: edce 413e 7c25 8fbc 6db3 193e 58d1 943c
00000080: 3bb6 fabb 03e7 a33d 0b79 1f3e c818 ff3d
00000090: 3c35 fbbb b4e6 2b3e 8cb8 d93e 8a57 6dbd
000000a0: 1853 d8be b1c9 073f 0a73 923e 2c3c cabe
000000b0: 6643 43be 96d4 713e 163a 013c 38af ec3a
000000c0: aa7e 383e 0265 803c 4152 01bd 700f df3d
000000d0: 06e6 96be 3861 8dbe aae2 9d3e 4663 52be
000000e0: c3a3 0bbe e04c c33d d71d 9fbd 84f2 2bbc
000000f0: ec0f 9c3d 46c2 cebd 3f43 d73c f7d9 1f3e
00000100: fb31 b9bd 7642 b93e bffb dbbd 583b a43e
00000110: ff51 993d e847 0b3e f8c0 28bd 3b52 56be
00000120: 1f48 8b3e d752 6a3d da32 e43c ae04 bd3e
00000130: 2ec0 f13d b493 c7bc b147 29be 7caf d5bc
00000140: 0737 943d e4ed 00be f968 df3d 7a3a d2bd
00000150: b165 a23c 6d29 49be 317e 9abe a1d5 b8bd
00000160: d381 5ebd 238d 49be 6646 7ebd 0316 983e
00000170: d501 8d3e d268 7cbd 4152 b4bc 8e4d 043c
00000180: a99e 97bc 434c 1cbe 7b6d c03d 84e6 68bd
00000190: 9e8c 69bd ee8e e13d af9e 57bd cee2 5cbd
000001a0: ba34 53be 0e5b d2bb c3db 5e3d 1bd7 e5bb
000001b0: 221d 73be 7e70 043f 379b 9c3e a42e fcbd
000001c0: c257 ae3c b9de 6a3d 7814 82be c869 49be
000001d0: dafc 2fbf 5ec3 6c3e 9dda 043e ee60 243e
000001e0: cbda 75be 21f9 8abd cbf4 75bd 0709 fcbe
000001f0: 25a9 15be d2b0 d4be 2ec5 11be caa3 443e
00000200: ec6f 2f3e c828 dbbd 0a78 4b3e 7ca7 0a3e
00000210: 05e9 a6bd 56e1 363e c5bf dd3d 2f09 4fbe
00000220: bc6f a63d 04be 033d a37e 8abd 11de d0bd
00000230: 7fcb 763d 11d1 d13d f68a 243d e88b 323e
00000240: 93db 3abe d7de 9dbd 305d 80be 5c84 b83d
00000250: 25db 573e 906f dfbc 4ba4 393c f166 53be
00000260: d546 98bd 2050 833e 5b0f 153e 3d75 b9bc
00000270: 87e9 c33e 4d47 c73d 5c6a fcbe 4031 b3bd
00000280: 9739 7c3e c442 323d 551e 213d 9691 bc3c
00000290: 632a af3d f547 e7bd 8e62 9a3d 67aa 113c
000002a0: a3c3 773e 30d1 f9bd ae45 02be bb6f 2cbe
000002b0: fff7 dbbd 458f 4fbd 78b0 c53d 12b5 9ebc
000002c0: a9a7 2abe 5094 9ebc 7b51 11be 8b7e b0be
000002d0: 22b2 993b 465d 77be 734f ff3c 8309 593e
000002e0: 5a7d 2fbe 53bb 3abd 26f7 883d cfe7 443e
000002f0: dbf0 8a3e ec6c 123d 93f1 09be 8ebf 2abd
00000300: 374f a3bd 7b7c aebe f50b ebbb ecd4 ed3d
00000310: b9c3 893e 9381 ff3e 4089 0cbe 15c3 d33d
00000320: 8b8b cc3d 7fe0 b23d 4ca5 663e 159b c13d
00000330: 877a 56bd 2957 5fbe f51c b6be 90f1 a7be
00000340: d1dd 86bd 68cc a33d b5a4 4ebe 6848 f4bd
00000350: b678 d63e 9d45 ba3d cfe7 d83e 20ab b13e
00000360: a687 2f3e ef3f 44be 5e26 21be 6986 963e
00000370: 2ed4 323e 9de1 4ebe b58e 083e 6911 133e
00000380: 995f 72bc

conv_block_2.0.bias f4 [5]
0.15964028 0.064145185 -0.054274924 0.10242004 -0.059990328
00000000: be78 233e 8d5e 833d 624f 5ebd 99c1 d13d
00000010: 6bb8 75bd

conv_block_2.1.weight f4 [5, 5, 3, 3]
-0.3412125 -0.09913847 -0.022198897 -0.21524474 -0.094806544 0.065517694 -0.20114823 0.29579982
-0.11809234 0.29030085 -0.008156974 -0.2730605 0.08026291 -0.0857942 -0.05670928 -0.32625875
-0.21105786 0.38067648 -0.17131288 0.026724545 -0.28717712 0.232471 0.12299472 -0.20352006
0.109213084 -0.04669617 -0.24672894 -0.15660463 0.035798926 0.10433089 -0.28944018 0.12298452
0.26239154 -0.09187295 0.12548243 0.021147879 -0.37588254 0.47097638 0.10897447 0.34384105
0.35980684 -0.11620186 0.61295325 -0.15849647 -0.08126762 0.06001967 -0.027884455 -0.049735542
-0.17054355 -0.045339145 -0.17755982 0.11403761 -0.09434845 -0.20329437 -0.34884855 0.37400872
-0.18013105 -0.08554585 0.26103896 0.08651899 0.5514504 0.06729146 -0.16500466 -0.26820654
-0.21413876 0.033038024 -0.40360072 -0.0040952447 0.42740843 0.52183294 -0.002291159 -0.07417476
0.16482921 0.13241003 0.12801099 0.06661538 -0.18918115 -0.2583035 -0.1048683 -0.09333825
0.42842317 0.04240814 -0.412845 -0.5667687 -0.5506485 -0.23063459 0.17606479 0.106525466
0.38740987 0.11666232 0.07321541 0.60596615 -0.13464846 -0.48887783 0.5079921 0.104775175
-0.3913568 -0.69540733 0.42235976 0.26135814 -0.024378348 -0.0037642273 -0.18102135 -0.032014377
-0.27356684 -0.1103806 0.0388958 0.3170843 0.20191796 -0.049596578 0.14215682 0.08554346
0.2156232 0.009474481 0.28458995 0.27674636 0.08923198 0.124184445 0.052179027 0.07258329
0.08701126 0.002296974 0.15277787 -0.22190729 0.13466665 -0.13770878 0.0102690365 -0.33143193
0.05382329 0.0016574305 -0.23375623 -0.040701296 -0.16696034 0.027927862 -0.533505 -0.17831878
0.18318495 0.07578736 -0.36726698 -0.4229592 -0.0052081253 0.024191227 -0.86972207 0.6619725
0.3398619 0.14979614 0.033476382 -0.29460856 0.3586483 -0.12116236 -0.32219535 0.01730444
-0.18419015 0.07505534 0.022533206 0.023690002 0.06925936 -0.01658926 0.17040797 0.00071385445
0.064956374 0.14148931 0.0049388525 0.27933908 0.26783392 0.19260606 0.00015006914 -0.13321017
-0.066162385 -0.14233322 0.2391445 -0.36930653 0.14496084 0.0038829057 -0.07292944 0.11933773
-0.026459288 -0.2927677 -0.09286292 0.14343964 -0.3997293 -0.6506448 -0.2699045 0.6024276
0.09962014 -0.5150128 -0.28008902 0.3762171 0.39583373 -0.16375808 -0.10571889 0.07588062
0.2418491 -0.02708386 -0.07141703 -0.1366822 0.17368457 -0.004027493 0.10606345 0.11990457
0.04815973 -0.34573665 -0.1847693 0.16059612 0.1516027 0.030246345 -0.17993198 0.040793546
0.02929985 -0.09976117 0.12428324 0.12210712 0.28073156 -0.2551813 0.088031955 -0.14601178
0.29216847 0.043744557 -0.093034595 -0.051491234 0.006814315 0.012848636 -0.051290732 -0.028968407
0.044486392
00000000: 68b3 aebe 1c09 cbbd 76da b5bc 1e69 5cbe
00000010: ef29 c2bd 242e 863d cdf9 4dbe 1373 973e
00000020: 66da f1bd 50a2 943e d4a4 05bc 96ce 8bbe
00000030: e160 a43d dfb4 afbd fd47 68bd 630b a7be
00000040: 8d1f 58be 07e8 c23e a56c 2fbe 6fed da3c
00000050: e108 93be e10c 6e3e a8e4 fb3d 9067 50be
00000060: 1cab df3d 7c44 3fbd 83a6 7cbe f75c 20be
00000070: e5a1 123d 6fab d53d 8131 94be 4fdf fb3d
00000080: 2f58 863e e327 bcbd 777e 003e 513e ad3c
00000090: ad73 c0be d123 f13e 022e df3d ef0b b03e
000000a0: 9a38 b83e 3efb edbd 81ea 1c3f e64c 22be
000000b0: a36f a6bd 2fd7 753d f16d e4bc 7fb7 4bbd
000000c0: f8a2 2ebe 8ab5 39bd 3ed2 35be 8d8c e93d
000000d0: c339 c1bd 662c 50be 479c b2be 127e bf3e
000000e0: 4674 38be aa32 afbd e6a6 853e de30 b13d
000000f0: da2b 0d3f 1bd0 893d fbf6 28be 5e52 89be
00000100: 3147 5bbe e152 073d c1a4 cebe 6731 86bb
00000110: 47d5 da3e d896 053f 4527 16bb f0e8 97bd
00000120: fdc8 283e 7f96 073e 5015 033e a56d 883d
00000130: b4b8 41be 5b40 84be 31c5 d6bd 2028 bfbd
00000140: 485a db3e 28b4 2d3d 6b60 d3be c117 11bf
00000150: 4df7 0cbf 792b 6cbe 544a 343e 062a da3d
00000160: 965a c63e a8ec ee3d f6f1 953d 9920 1b3f
00000170: 49e1 09be 324e fabe c50b 023f 5e94 d63d
00000180: eb5f c8be 3706 32bf 8a3f d83e bcd0 853e
00000190: 1ab5 c7bc 41b1 76bb a95d 39be 8221 03bd
000001a0: f410 8cbe 390f e2bd 3451 1f3d e058 a23e
000001b0: 95c3 4e3e c825 4bbd 8f91 113e 6931 af3d
000001c0: 54cc 5c3e db3a 1b3c c6b5 913e b3b1 8d3e
000001d0: 42bf b63d 6a54 fe3d adb9 553d 8ca6 943d
000001e0: f632 b23d d488 163b cd71 1c3e aa3b 63be
000001f0: 0ee6 093e 8803 0dbe 763f 283c 72b1 a9be
00000200: cf75 5c3d 243e d93a cb5d 6fbe 67b6 26bd
00000210: a7f7 2abe f9c8 e43c c993 08bf 3399 36be
00000220: d694 3b3e 6736 9b3d 6b0a bcbe 1c8e d8be
00000230: eca8 aabb ae2c c63c 1ba6 5ebf 0877 293f
00000240: 6102 ae3e 2964 193e 881e 093d efd6 96be
00000250: c0a0 b73e f923 f8bd caf6 a4be 0ac2 8d3c
00000260: 589c 3cbe 9db6 993d 8f97 b83c 8911 c23c
00000270: dad7 8d3d 33e6 87bc 6d7f 2e3e f621 3b3a
00000280: d907 853d 93e2 103e 19d6 a13b 8805 8f3e
00000290: 8721 893e 863a 453e e15b 1d39 3f68 08be
000002a0: 2580 87bd cdbf 11be 4ce2 743e bf15 bdbe
000002b0: 9d70 143e 5978 7e3b 085c 95bd 5767 f43d
000002c0: 26c1 d8bc a6e5 95be ea2e bebd d7e1 123e
000002d0: 52a9 ccbe a890 26bf ec30 8abe b238 1a3f
000002e0: a505 cc3d e1d7 03bf d467 8fbe 879f c03e
000002f0: b8aa ca3e 33b0 27be 2583 d8bd 4c67 9b3d
00000300: 4aa7 773e f9de ddbc 1843 92bd 6bf6 0bbe
00000310: 5eda 313e 0ff9 83bb cb37 d93d 8790 f53d
00000320: 2343 453d 6504 b1be 2a34 3dbe 4f73 243e
00000330: bd3d 1b3e 2fc7 f73c 1740 38be 2217 273d
00000340: 3d06 f03c 964f ccbd 3688 fe3d 4c13 fa3d
00000350: 0cbc 8f3e 20a7 82be 194a b43d 1d84 15be
00000360: 1b97 953e 7e2d 333d ec88 bebd 79e8 52bd
00000370: 9e4a df3b 1683 523c 3b16 52bd 274f edbc
00000380: 5d37 363d

conv_block_2.1.bias f4 [5]
-0.3335441 -0.43299115 -0.5744959 -0.49156168 -0.4352849
00000000: 4bc6 aabe 04b1 ddbe 2a12 13bf f9ad fbbe
00000010: aadd debe

classifier.1.weight f4 [24, 245]
0.80086946 -0.5698876 -0.27836567 0.18094936 -0.72851086 0.08300907 0.9232847 0.83932215
-0.566074 1.3189306 -0.37673888 -0.23620996 0.9872356 1.0273186 0.44114798 0.3047663
-0.5584242 0.35023558 0.18551312 1.0001061 -0.38573238 0.4142352 0.06685648 -0.80787617
-0.49130285 -0.37085772 0.1593701 -0.85070544 0.26188704 -0.32275945 -1.411189 -0.58811903
0.1727006 0.36638212 -0.64513713 0.04370427 -0.2439472 -0.5941651 0.18611437 0.2479017
0.10173959 -0.43405467 -0.502284 -0.17516081 0.71557915 0.3860619 -0.5424207 0.06641857
-0.29545635 -0.38199922 0.33624092 0.7281449 -0.5454581 -0.35931423 -0.5082097 -0.83961076
-0.6564381 0.7966775 0.35623997 0.64901024 -0.20119916 -0.9377039 -0.53767 -0.59514976
-0.7060479 -0.9523588 -0.58159643 -0.046540994 0.31280652 -0.08335919 0.09706401 -0.71912885
-0.2271195 -0.03928548 0.42256472 0.42080513 0.96902883 -0.6682609 -0.64091855 1.067271
0.45417032 -0.71801215 0.12702988 1.0451391 -0.15520804 -0.5610802 -0.6029038 -0.4681691
0.1506088 0.2722201 0.22159176 0.13745521 0.50813144 -0.3972205 -0.9319727 0.12873966
0.07808937 0.20692201 -0.017295383 -0.31934285 -0.06956943 0.16095497 -0.061893377 -1.271459
0.42200798 -0.22655195 0.21264301 -0.10459109 -0.33811942 -1.4321826 -0.47336122 0.5486733
-0.07642969 1.2232149 -0.71672577 -0.23593564 -0.090852305 -0.42354935 -0.16877863 0.15121119
0.98452747 0.14956225 0.61570066 -0.50513566 0.857833 0.046506923 0.26171866 0.40377173
0.38370776 0.4779641 -0.6179361 0.6530549 1.1042384 0.06267769 0.81330246 0.07575659
-0.49221075 -0.30604377 0.6217729 0.15320961 0.31201077 0.15395573 0.03991758 -0.12470354
0.28766108 -0.24044462 -0.13605824 0.3324397 0.5023742 1.3588754 0.6929662 -0.4762463
-0.22231816 0.86788934 0.46729878 0.8164177 0.13123676 0.86207396 -0.0025896297 -0.21876334
0.75972724 0.36892372 0.7455328 -0.8844541 0.37831324 -0.55895936 -0.49575123 -1.7444654
0.25158125 0.11138141 -0.06770558 0.02916417 -0.5165478 -0.9734912 -1.6459255 0.3267042
-0.17133386 -1.284874 0.6266789 0.9063779 -0.30834708 -0.8111512 -0.07750536 0.59738904
0.2794127 -0.4690109 -0.28539792 0.4511546 0.48414028 0.012956595 -0.1331296 0.7830701
-0.6660712 -0.6131467 -0.036022265 0.64494306 0.61150426 0.11751383 -0.83967406 -2.1521869
-0.87909716 -0.4093252 -0.5274692 0.22476825 0.8946732 1.0345705 0.12570286 0.27860466
0.3355965 0.01625594 0.46023288 0.53305966 -0.5154255 -0.5203091 -1.080663 0.41770688
0.8673691 0.26238498 0.024692034 -0.36820397 -0.33171192 -1.614499 -0.43162724 -0.21413228
0.13424197 0.3207762 -0.12928356 0.027699504 -0.6542861 -1.0354719 -0.09096983 -0.240087
0.13803227 -0.6274445 -0.007872947 0.2679471 -0.31644523 -0.24353984 -0.19123323 0.26001403
0.10656206 0.34606898 0.59174687 -0.16318677 -0.9514352 0.672557 0.1280103 0.06748317
1.2117804 1.557234 0.31670544 -0.09562338 0.16553853 -0.44931868 0.431109 0.39060232
00000000: c805 4d3f 27e4 11bf f285 8ebe ca4a 393e
00000010: b07f 3abf a900 aa3d 635c 6c3f d1dd 563f
00000020: 3aea 10bf b8d2 a83f ebe3 c0be 06e1 71be
00000030: 79bb 7c3f 2d7f 833f 26de e13e 540a 9c3e
00000040: e3f4 0ebf 1452 b33e 27f7 3d3e 7a03 803f
00000050: b77e c5be a316 d43e 0dec 883d f9d0 4ebf
00000060: 0c8c fbbe 10e1 bdbe ea31 233e d5c7 59bf
00000070: 0f16 863e ba40 a5be d7a1 b4bf f88e 16bf
00000080: 6dd8 303e 7096 bb3e b527 25bf 4003 333d
00000090: 4bcd 79be 341b 18bf c494 3e3e f1d9 7d3e
000000a0: d95c d03d 6a3c debe af95 00bf 5b5d 33be
000000b0: 3230 373f e8a9 c53e 15dc 0abf 7606 883d
000000c0: 0e46 97be 6795 c3be c527 ac3e b467 3a3f
000000d0: 24a3 0bbf 09f8 b7be 081a 02bf bbf0 56bf
000000e0: 540c 28bf 0ef3 4b3f 1665 b63e 8925 263f
000000f0: 2707 4ebe 5d0d 70bf bea4 09bf bc5b 18bf
00000100: 8ebf 34bf c9cd 73bf 81e3 14bf c5a1 3ebd
00000110: 2d28 a03e 39b8 aabd 7fc9 c63d d418 38bf
00000120: 0492 68be d0e9 20bd 675a d83e c573 d73e
00000130: 4612 783f 2513 2bbf 3d13 24bf 569c 883f
00000140: 0389 e83e a5cf 37bf 1f14 023e 1ec7 853f
00000150: dbee 1ebe f4a2 0fbf e757 1abf dcb3 efbe
00000160: 3139 1a3e 6f60 8b3e f3e8 623e 0fc1 0c3e
00000170: e714 023f 7c60 cbbe c395 6ebf 54d4 033e
00000180: 52ed 9f3d 5de3 533e 0caf 8dbc e880 a3be
00000190: 6b7a 8ebd 61d1 243e e983 7dbd 2bbf a2bf
000001a0: 6e11 d83e 3cfd 67be 17bf 593e da33 d6bd
000001b0: fd1d adbe c251 b7bf 675c f2be da75 0c3f
000001c0: 2b87 9cbd 4e92 9c3f 577b 37bf 1d99 71be
000001d0: c610 babd 76db d8be 4ed4 2cbe 1bd7 1a3e
000001e0: fe09 7c3f d926 193e 8f9e 1d3f 9250 01bf
000001f0: f29a 5b3f 0b7e 3e3d fdff 853e 2bbb ce3e
00000200: 5875 c43e b6b7 f43e 0f31 1ebf 9b2e 273f
00000210: af57 8d3f 295d 803d 9734 503f 4526 9b3d
00000220: 0c03 fcbe c5b1 9cbe 822c 1f3f fbe2 1c3e
00000230: e0bf 9f3e 92a6 1d3e 9e80 233d 9264 ffbd
00000240: 5048 933e 1d37 76be da52 0bbe 8935 aa3e
00000250: 989b 003f a1ef ad3f 3c66 313f 8ed6 f3be
00000260: 5fa7 63be ff2d 5e3f c941 ef3e c000 513f
00000270: ee62 063e e1b0 5c3f c7b6 29bb 7f03 60be
00000280: 7c7d 423f 92e3 bc3e 3ddb 3e3f 956b 62bf
00000290: 46b2 c13e f617 0fbf 1bd3 fdbe a44a dfbf
000002a0: 42cf 803e f01b e43d 39a9 8abd b3e9 ee3c
000002b0: 7a3c 04bf b836 79bf b0ad d2bf c645 a73e
000002c0: 2572 2fbe c076 a4bf 076e 203f 6208 683f
000002d0: abdf 9dbe 9ba7 4fbf 21bb 9ebd 7dee 183f
000002e0: 2e0f 8f3e 3222 f0be ad1f 92be bcfd e63e
000002f0: 3ce1 f73e e647 543c 2053 08be 4877 483f
00000300: a483 2abf 2ff7 1cbf 158c 13bd fd1a 253f
00000310: 8b8b 1c3f 17ab f03d e1f4 56bf 6ebd 09c0
00000320: 830c 61bf 1393 d1be 3908 07bf a629 663e
00000330: 4e09 653f ce6c 843f 40b8 003e 45a5 8e3e
00000340: 4ed3 ab3e 2d2b 853c a5a3 eb3e 9976 083f
00000350: edf2 03bf fa32 05bf 2a53 8abf addd d53e
00000360: e70b 5e3f 5357 863e f346 ca3c 3b85 bcbe
00000370: 25d6 a9be e7a7 cebf 3ffe dcbe 7e45 5bbe
00000380: ba76 093e c73c a43e e962 04be 12ea e23c
00000390: 4b7f 27bf 588a 84bf 644e babd 5ed9 75be
000003a0: 5558 0d3e 34a0 20bf 88fd 00bc 5d30 893e
000003b0: 1c05 a2be 8262 79be a5d2 43be 8f20 853e
000003c0: 363d da3d f42f b13e b97c 173f 6f1a 27be
000003d0: 4291 73bf b22c 2c3f 2215 033e 9e34 8a3d
000003e0: 9f1b 9b3f 7253 c73f 3727 a23e 31d6 c3bd
000003f0: ef82 293e 190d e6be 52ba dc3e 07fd c73e

classifier.1.bias f4 [24]
-0.6550988 -0.6919372 -1.0507137 -1.0167425 -0.5331152 0.16350761 -0.049978945 0.06461224
0.5547242 -0.5118968 0.1311182 0.12629741 -0.96086264 -0.8227623 0.28731018 0.23788807
-0.24327011 0.27314478 1.1804421 -0.35774064 0.6872834 1.1077303 1.7971048 -0.47322494
00000000: 8eb4 27bf cc22 31bf c97d 86bf 9e24 82bf
00000010: 3d7a 08bf 8a6e 273e b9b6 4cbd 6c53 843d
00000020: 6802 0e3f ab0b 03bf d943 063e 1c54 013e
00000030: 18fb 75bf 8da0 52bf 521a 933e ee98 733e
00000040: cd1b 79be a2d9 8b3e ba18 973f c829 b7be
00000050: cef1 2f3f 1bca 8d3f 8807 e63f 8a4a f2be
